models/headache_model.pth (torch, 246070 bytes, 198 tensors)

encoder.shared_layers.0.fc.weight f4 [64, 32]
0	0xbddd19cf	-0.10795938
1	0x3cde7cc2	0.027159099
2	0x3e8404cc	0.2578491
3	0xbe42aeef	-0.19012044
4	0xbea2851c	-0.3174218
5	0x3c4da1cd	0.012550783
6	0x3e528b3a	0.20560923
7	0xbd08ee9c	-0.03343068
8	0xbc9d29b2	-0.019184921
9	0x3e140ee3	0.14458804
10	0x3e92030e	0.28517956
11	0x3e20ec38	0.1571511
12	0x3dcdf59f	0.10056614
13	0x3e19e9c8	0.15030587
14	0xbcf21859	-0.029552625
15	0xbe927996	-0.28608388
16	0x3dbaeb33	0.09126892
17	0xbe232826	-0.15933284
18	0xbcb101ed	-0.021607364
19	0xbd598cf5	-0.053112943
20	0x3e6127cc	0.21987838
21	0xbdbf52b8	-0.09341949
22	0x3dc48ff9	0.09597773
23	0xbd953db1	-0.07287157
24	0x3dfd8461	0.12378765
25	0xbe4deb03	-0.20109181
26	0xbcc5fed3	-0.024169361
27	0x3cbb8bd9	0.022893833
28	0xbe271ad3	-0.16318826
29	0x3e24502a	0.16046205
30	0x3d8ac909	0.06776626
31	0x3e71c176	0.23608956
32	0x3e81bfa2	0.25341517
33	0x3e2111fa	0.15729514
34	0x3d020b42	0.031749018
35	0x3e85923a	0.26088125
36	0x3e32d56e	0.1746423
37	0xbdb58412	-0.08863081
38	0xbda9f727	-0.08299094
39	0x3b70242c	0.0036642654
40	0x3d4c41e4	0.049867526
41	0x3c3d12a2	0.011540087
42	0x3d831949	0.06401307
43	0xbe86d41c	-0.26333702
44	0xbc08f9f1	-0.008360372
45	0xbe26441d	-0.1623692
46	0xbe78f121	-0.24310733
47	0x3d9ce6c7	0.07661205
48	0xbdee7821	-0.116440065
49	0x3d909fdb	0.0706174
50	0xbd991894	-0.07475391
51	0x3dba4f76	0.09097187
52	0x3da03d15	0.078241505
53	0x3d02799b	0.031854253
54	0xbdaac583	-0.083384536
55	0xbe57d508	-0.21077359
56	0xbdffc762	-0.12489201
57	0xbbe7e564	-0.007076906
58	0x3d2ffcb3	0.042965602
59	0xbe99b392	-0.30019814
60	0xbd06fdbe	-0.03295683
61	0xbd6361d8	-0.055513233
62	0x3dfb6ca3	0.1227658
63	0xbdf2358e	-0.11826621
64	0xbe6e99ac	-0.23300809
65	0xbe4b23a8	-0.1983782
66	0xbe6a3eb5	-0.22875483
67	0x3d20b042	0.039230593
68	0xbd0fa23b	-0.035066824
69	0xbd6e4424	-0.058170453
70	0x3db64bfd	0.08901212
71	0xbd66b65d	-0.05632626
72	0x3b54b61b	0.0032457176
73	0xbe129b52	-0.14317062
74	0xbdb27f0b	-0.08715638
75	0x3e239e67	0.15978394
76	0xbc544394	-0.012955565
77	0xbbd1c73b	-0.006401924
78	0x3dfe8020	0.12426782
79	0xbe3749a5	-0.17899187
80	0x3c26d9e5	0.010183786
81	0x3d16098e	0.036630206
82	0xbd435b2e	-0.047694378
83	0xbe60bbd7	-0.21946655
84	0xbe5bc525	-0.21461923
85	0xbe61136d	-0.21980067
86	0xbd8002ca	-0.06250532
87	0xbdad56d0	-0.08463824
88	0x3e9749e9	0.29548576
89	0xbddff2ce	-0.10934983
90	0x3d6743a1	0.05646098
91	0x3e1846ce	0.1487076
92	0x3dd60026	0.10449247
93	0xbd2e7769	-0.042594347
94	0xbe5fb4b3	-0.21846275
95	0xbe55574a	-0.2083408
96	0x3e88b18e	0.26697963
97	0x3dfca53f	0.12336206
98	0xbc9d4db6	-0.019202095
99	0x3dd2fe92	0.10302462
100	0x3dd3d2c5	0.103429355
101	0xbdfe44f4	-0.124154955
102	0x3d92356a	0.07139094
103	0x3def05ce	0.11671029
104	0xbd10b7b2	-0.035331436
105	0xbe88b472	-0.2670017
106	0xbdb99ffb	-0.09063717
107	0x3d78c12c	0.060731098
108	0xbdf5d1f0	-0.12002933
109	0xbdef3069	-0.116791554
110	0xbcf6e7ca	-0.030139823
111	0x3d0b4a78	0.034006566
112	0x3b86e105	0.00411618
113	0x3e23dbe3	0.16001849
114	0x3cc7a69c	0.024371438
115	0x3d461c9f	0.04836714
116	0x3dc1822a	0.09448655
117	0xbdd27226	-0.10275678
118	0x3df27fc2	0.11840774
119	0x3d5ece78	0.054396123
120	0x3d03fdfb	0.032224637
121	0xbdabce33	-0.08388939
122	0xbe336b16	-0.17521319
123	0x3c2c08e6	0.010500168
124	0xbe1d176b	-0.15340964
125	0xbdeff28d	-0.11716185
126	0x3d706f58	0.058699936
127	0xbe7a38b5	-0.24435695
128	0xbd9a2241	-0.07526065
129	0xbd121ea5	-0.035673756
130	0xbd12aff9	-0.03581235
131	0x3cafe587	0.021471752
132	0x3ceff05a	0.029289413
133	0xbc54840c	-0.012970936
134	0x3dabb1e4	0.08383539
135	0xbe4002a9	-0.18751015
136	0x3d712db9	0.058881495
137	0xbe346af0	-0.17618918
138	0xbd1fa987	-0.038980033
139	0x3cc11ba9	0.02357276
140	0xbdee9918	-0.11650294
141	0xbcecc9f1	-0.028904887
142	0x3e2640d7	0.16235672
143	0xbd451630	-0.048116863
144	0xbdac748a	-0.084206656
145	0xbd5522a0	-0.052034974
146	0xbe5822ca	-0.21107021
147	0x3e943152	0.28943878
148	0x3bb8733b	0.005628971
149	0xbbfd4d93	-0.007730195
150	0x3bb3688b	0.005475109
151	0x3cbe5297	0.023232741
152	0xbd370d0f	-0.044690188
153	0x3e8e0f80	0.277462
154	0xbdea1f38	-0.11431736
155	0xbe8e54cc	-0.2779907
156	0xbc97abb5	-0.018514493
157	0xbe0872c9	-0.13325037
158	0xbe0fe1b4	-0.14050943
159	0xbe2728a5	-0.16324098
160	0x3d0acee3	0.03388871
161	0xbe12fe5e	-0.14354846
162	0xba281c50	-0.00064129103
163	0x3da3e643	0.08002903
164	0x3e5d024c	0.21582907
165	0x3e419e30	0.18908
166	0x3e842693	0.2581068
167	0xbc33fa70	-0.010985002
168	0xbe20ab45	-0.15690334
169	0xbe12b8c1	-0.1432829
170	0x3d5df113	0.054184984
171	0xbe1abe11	-0.15111567
172	0x3ce64afe	0.028111931
173	0x3dfcc143	0.12341549
174	0xbe46288d	-0.19351406
175	0x3e71fa40	0.23630619
176	0xbe463b5a	-0.19358578
177	0xbe8a4037	-0.27002117
178	0xbe85f045	-0.26159874
179	0xbe67319e	-0.22577521
180	0xbd0ea03e	-0.034820788
181	0x3e6d5aa1	0.23179103
182	0x3c0998ea	0.008398274
183	0xbdb55477	-0.08854001
184	0xbdc11ad8	-0.09428948
185	0x3b9905a8	0.0046698637
186	0xbe71e154	-0.23621112
187	0xbe075401	-0.13215639
188	0xbe527118	-0.20550954
189	0x3dee91c4	0.11648896
190	0x3cae6dc7	0.02129258
191	0x3e8858e2	0.26630312
192	0x3e53bc13	0.20677213
193	0x3df44cc7	0.119287066
194	0xbde286bb	-0.11060854
195	0x3e5a4b9b	0.21317904
196	0x3d907607	0.07053762
197	0xbd13342a	-0.03593842
198	0xbe3e7981	-0.18601038
199	0xbd80f584	-0.062968284
200	0xbdca8af8	-0.098897874
201	0xbe278ed7	-0.16363083
202	0x3d2da43d	0.042392958
203	0x3d2d4d94	0.042310312
204	0xbe941a30	-0.2892623
205	0xbe8a59a5	-0.27021518
206	0x3dd71293	0.105015896
207	0xbe6c5e28	-0.23082793
208	0x3e4f69d9	0.20255221
209	0x3e5e0070	0.21679854
210	0xbd36c550	-0.044621766
211	0x3e089dbb	0.1334142
212	0x3e1bb3cb	0.15205304
213	0xbbddbd0f	-0.0067669223
214	0x3e2c3d4f	0.16820262
215	0x3dc3c203	0.09558489
216	0xbe964322	-0.29348093
217	0x3c0f4a7c	0.008745786
218	0x3de7ac51	0.113121636
219	0xbe1c418c	-0.15259379
220	0xbe39192e	-0.18076012
221	0xbc86610a	-0.016403694
222	0xbd109faa	-0.035308518
223	0xbda3ddf9	-0.08001322
224	0x3d5608a9	0.052254353
225	0x3d8dccee	0.06923853
226	0x3e622083	0.22082715
227	0x3d3f6ed8	0.04673657
228	0xbdb4e6fb	-0.088331185
229	0xbe4d90b4	-0.20074731
230	0xbcf200cb	-0.029541394
231	0x3e886f0c	0.26647222
232	0x3db13f66	0.086546704
233	0x3d3a6b8f	0.045512732
234	0x3e76cabb	0.24100773
235	0xbe0410cb	-0.12897031
236	0xbe485bd3	-0.19566278
237	0x3e061729	0.13094772
238	0xbe558474	-0.20851308
239	0x3d5b3c3c	0.05352424
240	0x3e0a6ed0	0.13518834
241	0xbe21e3d0	-0.1580956
242	0x3af38b9a	0.0018581033
243	0xbe0bc3e2	-0.13648942
244	0x3e9fdc51	0.31222776
245	0x3e0b93bb	0.13630573
246	0xbe0a86e7	-0.13528024
247	0x3dfa0128	0.12207252
248	0xbe1867da	-0.14883366
249	0xbccfb16c	-0.025353156
250	0xbd84b567	-0.06479912
251	0xbe8dfff7	-0.27734348
252	0xbde35a64	-0.11101225
253	0xbe92cb8b	-0.28670916
254	0x3c9dd07c	0.019264452
255	0xbb2b8623	-0.002617248

encoder.shared_layers.0.fc.bias f4 [64]
0	0x3df01e2a	0.11724503
1	0xbe481997	-0.19541012
2	0x3d37185b	0.04470096
3	0xbd9fbb9d	-0.07799456
4	0xbc4ce2b3	-0.012505221
5	0xbb685cdf	-0.0035455746
6	0x3e2f6bbe	0.17130944
7	0xbe479f90	-0.19494462
8	0x3c8fb62d	0.017542923
9	0xbda9bce7	-0.082879834
10	0x3b0207c1	0.0019841047
11	0x3e232394	0.1593154
12	0xbcb44621	-0.022006096
13	0xbd2684bb	-0.040653925
14	0xbea0bbb0	-0.31393194
15	0x3e2a3765	0.16622694
16	0x3d8705a0	0.0659287
17	0x3d0601fe	0.032716744
18	0xbe26a761	-0.16274787
19	0xbe6cb66a	-0.2311646
20	0x3e9fcbe8	0.31210256
21	0xbe7c24ad	-0.24623366
22	0xbdc4e33c	-0.09613654
23	0xbdfefabd	-0.12450168
24	0x3e1c987c	0.15292543
25	0xbe2db74b	-0.16964452
26	0x3e72d620	0.23714495
27	0xbe3a9bfc	-0.18223566
28	0x3d9be72c	0.07612452
29	0x3ba0858e	0.0048987335
30	0xbe37d258	-0.17951334
31	0xbc92de4c	-0.017928265
32	0x3dc1c483	0.0946131
33	0x3d799f60	0.060943007
34	0xbc4430f3	-0.011974561
35	0x3e18e1a4	0.14929825
36	0xbe7528da	-0.23941365
37	0xbe2700e8	-0.1630894
38	0xbe9c9fe8	-0.3059075
39	0x3e82a009	0.25512722
40	0x3d30048c	0.042973086
41	0x3d068867	0.032844927
42	0x3dfd1fa6	0.12359552
43	0x3e09d4eb	0.13460128
44	0x3e06dc20	0.13169909
45	0x3d97ffb2	0.07421817
46	0xbe651ec1	-0.22375013
47	0x3e8f4f21	0.27990058
48	0x3cf720c2	0.030166987
49	0x3e8b3905	0.2719194
50	0x3e8645f7	0.26225254
51	0xbd6be721	-0.05759347
52	0x3cd811d9	0.026375698
53	0x3daba55d	0.0838115
54	0x3c6511ed	0.013981325
55	0xbe0bf128	-0.13666213
56	0x3d59824b	0.053102773
57	0xbbf480f7	-0.007461663
58	0xbe04003f	-0.12890719
59	0x3d9b0dc2	0.075709835
60	0xbd3ab6f0	-0.04558462
61	0x3e891f50	0.26781702
62	0xbe6fee88	-0.23430836
63	0x3cf1e09a	0.029526044

encoder.shared_layers.0.bn.weight f4 [32]
0	0x3f730990	0.94936466
1	0x3f84348e	1.0328538
2	0x3f89de8e	1.0771043
3	0x3f84f102	1.038605
4	0x3f609b16	0.8773664
5	0x3f5ddab9	0.8666187
6	0x3f6cb3ae	0.9246167
7	0x3f5dfb7f	0.8671188
8	0x3f8c3492	1.0953543
9	0x3f8a7207	1.0816048
10	0x3f903cc6	1.1268547
11	0x3f70591d	0.93885976
12	0x3f5bdef3	0.8588707
13	0x3f61e2b6	0.8823656
14	0x3f5f94ec	0.8733661
15	0x3f6a346e	0.9148625
16	0x3f88348c	1.0641036
17	0x3f6763b3	0.90386504
18	0x3f79f253	0.9763538
19	0x3f897c3e	1.0741041
20	0x3f5cf56a	0.8631197
21	0x3f8c7e5a	1.097606
22	0x3f89c5f3	1.0763534
23	0x3f8e7208	1.112855
24	0x3f91f727	1.140355
25	0x3f5f848c	0.87311625
26	0x3f5d475d	0.86437017
27	0x3f6d9902	0.92811596
28	0x3f5f94fd	0.87336713
29	0x3f67b5ad	0.9051159
30	0x3f913292	1.1343558
31	0x3f8eb38e	1.1148546

encoder.shared_layers.0.bn.bias f4 [32]
0	0x3dfbe2a7	0.1229909
1	0x3e0a3ae7	0.13499032
2	0xbe09f961	-0.13474037
3	0x3da24adf	0.07924437
4	0x3e09b7eb	0.13449065
5	0xbda0c1dd	-0.078494765
6	0xbd7ef460	-0.062244773
7	0x3c999351	0.018747004
8	0xbe08f33e	-0.1337404
9	0x3dca38fd	0.09874151
10	0x3dfb5f7a	0.1227407
11	0x3dfadc4c	0.122490495
12	0xbe1165e2	-0.14199021
13	0xbe09f95f	-0.13474034
14	0x3da8f2ae	0.082494125
15	0x3dccc85a	0.099991515
16	0xbd126cbf	-0.03574824
17	0x3e051c33	0.12999038
18	0x3e06a57c	0.13149065
19	0xbd87ac77	-0.06624692
20	0xbe0663e7	-0.13124047
21	0xbc81083e	-0.015751
22	0x3e0d8edb	0.13824026
23	0xbe0663ec	-0.13124055
24	0xbdb01ce4	-0.085992604
25	0xbd407fb6	-0.046996795
26	0xbe1165e2	-0.14199021
27	0xbe0abdf9	-0.13549031
28	0x3e07ed17	0.13274036
29	0x3e082ea1	0.13299038
30	0x3e08f33d	0.13374038
31	0xbe0e11ed	-0.13874026

encoder.shared_layers.0.bn.running_mean f4 [32]
0	0x3e789f7c	0.24279588
1	0xbf3b367d	-0.7313002
2	0x3f201bc8	0.6254239
3	0xbdac4517	-0.08411615
4	0xbe84adf0	-0.25913954
5	0x3f52d400	0.82354736
6	0x3d92cef4	0.071683794
7	0xbe580fe6	-0.21099815
8	0xbd87a700	-0.066236496
9	0xbea93031	-0.3304458
10	0x3e20e8d4	0.15713817
11	0x3e82be7e	0.2553596
12	0x3fa09015	1.254397
13	0x3f113b8e	0.567315
14	0xbefda44d	-0.49539414
15	0xbe65edb4	-0.22453958
16	0x3ea49244	0.32142842
17	0x3e854893	0.26031932
18	0xbe8aba45	-0.27095237
19	0xbf1ee440	-0.6206703
20	0x3f968c39	1.1761543
21	0xbf50abff	-0.81512445
22	0xbe5469a3	-0.20743422
23	0xbe76329e	-0.24042746
24	0x3f4e8cb7	0.80683464
25	0xbec924e0	-0.39285946
26	0x3edb19a4	0.42793
27	0xbf077626	-0.52914655
28	0x3db639fa	0.08897777
29	0xbe1608fe	-0.14651868
30	0xbede9bb0	-0.43478155
31	0xbebf448c	-0.37356985

encoder.shared_layers.0.bn.running_var f4 [32]
0	0x4001fcec	2.0310621
1	0x40758206	3.836061
2	0x3ffade1d	1.9599034
3	0x3e72266b	0.23647468
4	0x3fb74f38	1.4321051
5	0x3fa0ea34	1.2571473
6	0x3e1bcb90	0.15214372
7	0x3f072940	0.5279732
8	0x3ee70730	0.4512267
9	0x3f24488d	0.64173204
10	0x3e77c0b8	0.2419461
11	0x402fa813	2.7446334
12	0x401b633c	2.4279318
13	0x405c5edb	3.4432895
14	0x40beb5ba	5.9596834
15	0x3fafa1bc	1.3721232
16	0x400513d0	2.0793343
17	0x40573f66	3.3632445
18	0x402698b6	2.6030707
19	0x404d84d1	3.2112315
20	0x3ff5a6a8	1.9191484
21	0x3fc12a27	1.5090989
22	0x3eea067d	0.45708075
23	0x3eb89c49	0.36056736
24	0x4049cc92	3.153111
25	0x3f8fdecb	1.1239866
26	0x3ea40d99	0.32041624
27	0x3f8f3d85	1.1190649
28	0x3f911777	1.1335286
29	0x3ec2b843	0.38031206
30	0x3f6517ae	0.8948926
31	0x408f67bd	4.4814134

encoder.shared_layers.1.fc.weight f4 [64, 32]
0	0x3e164ea2	0.14678434
1	0x3e2a210c	0.16614169
2	0x3e75f1a1	0.24017955
3	0xbe42bfac	-0.1901843
4	0x3de1eae4	0.1103113
5	0x3de26f79	0.11056418
6	0xbe407183	-0.18793301
7	0x3dae9c44	0.08525899
8	0x3dc18bff	0.0945053
9	0xbce3b1a0	-0.02779466
10	0xbe7a26ce	-0.24428865
11	0x3cc1ad62	0.023642246
12	0x3e1cf5f2	0.15328196
13	0x3da48514	0.08033195
14	0xbd59dbdc	-0.05318819
15	0x3d7a3091	0.061081473
16	0x3c6592e0	0.0140120685
17	0xbd1c502d	-0.0381624
18	0x3e0c2fea	0.13690153
19	0x3e21580c	0.15756243
20	0xbca97b82	-0.020688776
21	0x3e7a3ace	0.24436495
22	0xbe440e7b	-0.19146149
23	0x3b90df10	0.0044211224
24	0xbd8e12d7	-0.06937187
25	0x3d0611c6	0.032731794
26	0xbd1a32b3	-0.037646007
27	0xbe339ada	-0.1753954
28	0xbe69c072	-0.22827318
29	0x3e8d17aa	0.27557117
30	0x3e9f0e96	0.31065816
31	0xbcfe417a	-0.031037081
32	0x3d2fe00c	0.042938277
33	0x3dedea5e	0.116169676
34	0x3e036bc3	0.12834077
35	0x3e13c73b	0.14431469
36	0x3e837d5e	0.25681585
37	0xbda8cf5b	-0.08242675
38	0xbda69029	-0.08132965
39	0x3e906ee5	0.28209606
40	0x3e461017	0.19342075
41	0x3e1ca58d	0.15297528
42	0x3db8d1b7	0.09024375
43	0xbd809a2d	-0.06279407
44	0x3e017783	0.12643246
45	0xbe90df6e	-0.28295463
46	0xbe685f96	-0.22692713
47	0x3e173383	0.14765744
48	0xbe5b8eda	-0.21441212
49	0xbe8c9f89	-0.27465466
50	0x3e83d905	0.2575151
51	0x3e953a5e	0.29146093
52	0x3e421180	0.18951988
53	0x3d3bd532	0.045857616
54	0xbafbb980	-0.0019205064
55	0xbe842887	-0.2581217
56	0xbe68ca30	-0.22733378
57	0xbcab5814	-0.020916022
58	0x3cdd2916	0.02699713
59	0xbe518c05	-0.2046357
60	0xbdfc23e6	-0.123115346
61	0x3c1ea64f	0.009683206
62	0x3cb8dc1d	0.022565896
63	0xbe1ce5a3	-0.15321974
64	0xbceb38ea	-0.028713662
65	0x3e4ab72d	0.19796439
66	0x39c16910	0.00036890106
67	0x3e3e74ac	0.18599194
68	0x3e9027c0	0.28155327
69	0xbd21250f	-0.039341982
70	0xbdfbf8ef	-0.1230334
71	0xbe489ed2	-0.19591835
72	0xbe0ec3a8	-0.13941824
73	0xbda08977	-0.07838719
74	0xbe20ee58	-0.15715921
75	0x3d00f780	0.031486034
76	0xbd438584	-0.047734752
77	0x3e25bc4b	0.1618511
78	0x3d9a8329	0.07544548
79	0xbd19e461	-0.037571315
80	0xbcdc5ce3	-0.02689976
81	0xbc2c31dc	-0.010509934
82	0x3cc2b53c	0.02376806
83	0x3d293959	0.041314457
84	0x3df102f2	0.1176814
85	0x3e737688	0.23775685
86	0xbe97bca2	-0.29636103
87	0xbe8dc545	-0.27689567
88	0x3e0eb6e9	0.13936962
89	0xbde48982	-0.1115904
90	0x3e0ee339	0.13953866
91	0x3e8cd809	0.27508572
92	0xbdb4b949	-0.08824403
93	0x3d61ff72	0.055175252
94	0x3d939e50	0.0720793
95	0xbe806384	-0.25075924
96	0xbd423968	-0.047418028
97	0xbe761b26	-0.24033794
98	0xbd0e740f	-0.03477865
99	0xbdb0e1c1	-0.08636809
100	0xbe9ae844	-0.3025533
101	0xbe38f67f	-0.18062781
102	0xbcd0f2b8	-0.025506362
103	0xbd269ca2	-0.04067672
104	0xbe886a2a	-0.26643497
105	0x3da5cdbd	0.08095882
106	0xbe3cb5e4	-0.18428761
107	0x3e034606	0.1281968
108	0x3e12fc3c	0.14354032
109	0x3e8e344c	0.27774274
110	0xbdc5cf10	-0.09658635
111	0x3c9f1a43	0.019421702
112	0x3e8b4964	0.2720443
113	0xbbfbf975	-0.0076896497
114	0xbe2cbd60	-0.16869116
115	0xbd7d512c	-0.06184499
116	0xbe29d8b8	-0.16586578
117	0xbe95bbce	-0.29244846
118	0xbc42290d	-0.011850608
119	0x3e93b4c8	0.28848863
120	0x3e5c8047	0.21533309
121	0xbe8f3676	-0.27971238
122	0x3e11f38c	0.14253062
123	0xbc551b7d	-0.013007042
124	0x3cc2737c	0.023736708
125	0xbd9fa639	-0.07795376
126	0xbd5f8f2e	-0.054579906
127	0x3e49157c	0.19637102
128	0xbe35c828	-0.17752135
129	0xbd282e43	-0.041059744
130	0xbea0edfe	-0.31431574
131	0x3d7d396b	0.061822336
132	0xbe8b8232	-0.2724777
133	0xbe2995a0	-0.16560984
134	0x3d2a1e4d	0.041532803
135	0xbe08a089	-0.1334249
136	0x3d818205	0.063236274
137	0xbe68e0b4	-0.22741967
138	0x3dbc42de	0.091924414
139	0x3d173d9a	0.036923982
140	0xbc0191a2	-0.007908257
141	0xbbed5dfe	-0.0072438708
142	0x3d24f44a	0.040272035
143	0xbd3c169f	-0.04592001
144	0xbcd7b3ba	-0.026330817
145	0x3d673438	0.056446284
146	0x3dd41119	0.103548236
147	0xbe7fca4b	-0.24979512
148	0xbe856235	-0.2605149
149	0xbe45d77f	-0.19320486
150	0x3e896988	0.26838326
151	0xbdcb86ba	-0.099378064
152	0x3e2afecc	0.1669876
153	0x3e648759	0.22317256
154	0xbe69ce9e	-0.22832724
155	0xbe50941d	-0.20369
156	0xbdc0eceb	-0.094201885
157	0x3c954f10	0.018226177
158	0xbe189336	-0.14899907
159	0x3e0b3e2a	0.13597932
160	0x3d6ecaf7	0.05829903
161	0x3d8ffc1c	0.07030508
162	0x3d829ca7	0.06377535
163	0x3e183538	0.14864051
164	0xbd20f4c0	-0.03929591
165	0xbe6b2d58	-0.22966516
166	0x3cf9060f	0.030398397
167	0xbb4fba7b	-0.0031696844
168	0x3bbccd2a	0.005761762
169	0x3e44a51a	0.19203606
170	0xbe0f0daf	-0.13970064
171	0xbe8ac152	-0.27100617
172	0x3d8e1a43	0.06938603
173	0xbd39b321	-0.045336846
174	0xbcfefcc9	-0.031126397
175	0x3e49b7bc	0.19698995
176	0xbdc6e3bc	-0.09711406
177	0x3c56af4b	0.013103317
178	0x3e1ee094	0.15515357
179	0xbe4357ab	-0.19076411
180	0x3d4f58f5	0.050621945
181	0xbc130997	-0.008974454
182	0xbb9ffe78	-0.00488263
183	0x3dc2d904	0.09514049
184	0xbe908e80	-0.2823372
185	0xbea08265	-0.31349483
186	0xbcde68c7	-0.027149571
187	0xbced7b2c	-0.028989397
188	0xbe215747	-0.1575595
189	0x3e3a7519	0.18208732
190	0x3e3dda3b	0.1854028
191	0x3b4db50f	0.0031388437
192	0xbe2bf3e7	-0.1679226
193	0x3e6f6bc5	0.23380955
194	0xbd26ecd0	-0.040753186
195	0x3e29d879	0.16586484
196	0x3d980ab9	0.0742392
197	0x3c90e021	0.017684998
198	0xbe76605f	-0.240602
199	0xbe07b0a5	-0.13250978
200	0x3d274570	0.040837705
201	0xbe2abc8b	-0.16673486
202	0xbe83c0fe	-0.2573318
203	0x3e875f74	0.26440012
204	0x3cb2bba4	0.02181799
205	0xbd415385	-0.04719879
206	0x3e9a193c	0.30097377
207	0xbe70d3da	-0.23518315
208	0xbe3a1c40	-0.18174839
209	0x399d687d	0.00030023223
210	0xbb1c6aa3	-0.0023867271
211	0x3c2bb254	0.010479528
212	0xbdaee4fb	-0.08539768
213	0xbe662cca	-0.22478023
214	0x3e411b94	0.18858176
215	0xbdc73258	-0.09726399
216	0x3ccf71f0	0.025322884
217	0x3e4c4f8f	0.19952224
218	0x3e1d1ec7	0.15343772
219	0xbe964b9d	-0.29354563
220	0xbce3737c	-0.027765028
221	0xbe1c0e5a	-0.1523985
222	0xbd600487	-0.054691818
223	0x3d1cf06a	0.038315214
224	0x3dbfd083	0.09365942
225	0x3e586054	0.21130496
226	0xbcc28dce	-0.023749258
227	0xbe2c5b6f	-0.16831754
228	0xbc38985e	-0.011266796
229	0xbe43a253	-0.1910489
230	0xbd19caee	-0.037547044
231	0xbe44d051	-0.19220091
232	0x3c92f48b	0.017938873
233	0xbd79c313	-0.060977053
234	0x3e67e5e9	0.22646298
235	0xbe620ac9	-0.22074427
236	0xbde3900b	-0.111114584
237	0xbe76af12	-0.24090222
238	0xbc9d2176	-0.019180994
239	0x3e3c8b24	0.18412453
240	0xbc65948b	-0.014012466
241	0xbe11aba0	-0.14225626
242	0xbdbf7a93	-0.09349551
243	0xbd83fcf7	-0.064447336
244	0x3e4ab2d3	0.19794779
245	0x3e18cb46	0.14921293
246	0x3d247769	0.04015294
247	0x3e7412a4	0.23835236
248	0xbdb87a3c	-0.09007689
249	0xbe0c34ac	-0.13691968
250	0xbd1a8892	-0.0377279
251	0xbdb1c7cf	-0.086806886
252	0xbe4ccc25	-0.1999975
253	0x3d1569e0	0.036477923
254	0xbc3b8bb3	-0.011446881
255	0x3e40877a	0.1880168

encoder.shared_layers.1.fc.bias f4 [64]
0	0x3d85b9c8	0.065295756
1	0x3e3623b8	0.17787063
2	0xbe55d7ce	-0.20883104
3	0xbda68b75	-0.08132068
4	0xbca6ed52	-0.020376835
5	0xbddb3413	-0.10703292
6	0x3e2a2152	0.16614273
7	0xbdf2c1ec	-0.11853394
8	0xbd6a5806	-0.057212852
9	0xbc1919b2	-0.009344505
10	0xbc755f47	-0.014976329
11	0xbe84b859	-0.25921896
12	0xbda24822	-0.079239145
13	0xbdb427b9	-0.08796639
14	0xbe79d9df	-0.24399517
15	0xbe9d4a9f	-0.30720994
16	0xbd031912	-0.03200633
17	0x3e453485	0.19258316
18	0xbdffcf5b	-0.12490722
19	0xbe934697	-0.28764793
20	0xbe23488e	-0.15945646
21	0xbe0a0df5	-0.13481887
22	0xbdc1ab58	-0.09456509
23	0x3d7d2cc7	0.06181028
24	0xbc9dc01b	-0.019256642
25	0xbcc1feb0	-0.023681015
26	0x3e53f40f	0.2069857
27	0x3dbd94f8	0.09256929
28	0x3e2c7243	0.16840462
29	0xbdf406f4	-0.11915389
30	0x3e85b2a8	0.26112866
31	0xbdd08dd1	-0.10183299
32	0x3e18b995	0.14914544
33	0x3e83bb10	0.25728655
34	0xbe99d455	-0.3004481
35	0x3d4d245e	0.05008351
36	0xbc86a44d	-0.016435767
37	0xbe9403b0	-0.28909063
38	0xbcde3167	-0.027123166
39	0xbe29dc9a	-0.16588059
40	0x3e8f1a10	0.27949572
41	0x3d76231c	0.060092077
42	0x3da0c9b3	0.07850971
43	0x3e34e18a	0.17664161
44	0xbe858feb	-0.26086363
45	0x3d5f71ab	0.05455176
46	0xbd8bc582	-0.06824781
47	0x3deb5225	0.11490277
48	0xbe1adda1	-0.15123607
49	0x3e66ac74	0.22526723
50	0x3e079ee8	0.13244212
51	0x3e569473	0.20955066
52	0x3e462f21	0.19353916
53	0x3dcd7117	0.10031336
54	0x3e462b5e	0.19352481
55	0x3d08fe7b	0.033445816
56	0x3d830f3a	0.063993886
57	0xbe5ba293	-0.21448736
58	0xbc014f71	-0.007892475
59	0xbd13e6fa	-0.03610895
60	0xbdf25f94	-0.11834636
61	0x3a89b4b7	0.0010506128
62	0x3e8ee228	0.2790692
63	0x3e5d1141	0.21588613

encoder.shared_layers.1.bn.weight f4 [32]
0	0x3f868a99	1.0511047
1	0x3f6ae89a	0.9176117
2	0x3f5ca38d	0.8618706
3	0x3f6bcddb	0.92110986
4	0x3f9142ef	1.1348552
5	0x3f767e31	0.962863
6	0x3f6a96a4	0.9163611
7	0x3f91f725	1.1403548
8	0x3f5c6203	0.86087054
9	0x3f636bfc	0.88836646
10	0x3f62349b	0.8836152
11	0x3f8aab60	1.083355
12	0x3f8ba122	1.0908549
13	0x3f65fb41	0.8983651
14	0x3f5badcb	0.8581206
15	0x3f8ee4b8	1.116355
16	0x3f80b7ae	1.0056055
17	0x3f90bfdc	1.1308551
18	0x3f9163b7	1.1358556
19	0x3f5c2077	0.8598704
20	0x3f5bef55	0.85912067
21	0x3f74e450	0.9566088
22	0x3f8dc603	1.1076053
23	0x3f5f329c	0.871866
24	0x3f5b9d69	0.85787064
25	0x3f5b9d69	0.85787064
26	0x3f8dff57	1.1093549
27	0x3f632a6c	0.88736606
28	0x3f8269d0	1.0188541
29	0x3f893282	1.0718539
30	0x3f5d2682	0.86386883
31	0x3f5deb17	0.86686844

encoder.shared_layers.1.bn.bias f4 [32]
0	0x3e06a57e	0.13149068
1	0x3d1a9bd9	0.037746284
2	0xbe0f1811	-0.13974024
3	0x3d332e9a	0.043745615
4	0x3e0cca43	0.13749032
5	0xbe0d0bd9	-0.13774051
6	0x3d2d0c17	0.042247858
7	0x3d49b694	0.049246386
8	0xbe0f599b	-0.13999026
9	0x3dc51aa6	0.096242234
10	0x3e0d0bcb	0.1377403
11	0x3e0c05a8	0.13674033
12	0xbdf434d7	-0.11924141
13	0xbe09b803	-0.13449101
14	0xbd1cabc1	-0.038249735
15	0x3df1a50e	0.1179906
16	0x3be5544a	0.0069985734
17	0x3e09b7d5	0.13449033
18	0x3e0c88b7	0.13724028
19	0xbdd706ae	-0.10499321
20	0xbe09764e	-0.13424036
21	0xbca3d8eb	-0.020000895
22	0x3e0d0bc8	0.13774025
23	0x3ba3ea4d	0.005002296
24	0xbded099e	-0.115741
25	0xbd27eb79	-0.04099605
26	0xbe1165e2	-0.14199021
27	0xbc3845ae	-0.011247082
28	0x3e0c88b7	0.13724028
29	0x3e0abdfb	0.13549034
30	0x3e0e11ed	0.13874026
31	0xbe08b1bd	-0.13349052

encoder.shared_layers.1.bn.running_mean f4 [32]
0	0xbdb628b2	-0.08894481
1	0x3f8a36fd	1.0798031
2	0xbf04f633	-0.5193817
3	0xbf8515f2	-1.0397322
4	0x3d8baf06	0.068204924
5	0xbe9346c3	-0.28764924
6	0xb9fc1b40	-0.00048085488
7	0x3d27f8a9	0.041008625
8	0xbddd133c	-0.10794684
9	0xbec20a38	-0.3789842
10	0xbe5d1836	-0.21591267
11	0xbf69dc4c	-0.9135177
12	0x3e665f89	0.22497381
13	0xbe6f2fb0	-0.23358035
14	0xbea478fc	-0.32123554
15	0xbed04bdb	-0.40682873
16	0xbebf566f	-0.3737063
17	0x3ecf7d9e	0.40525526
18	0xbf52ea31	-0.823886
19	0xbf10efb4	-0.5661576
20	0xbef7ddec	-0.484115
21	0x3c8ab118	0.016930148
22	0xbe8b8e8c	-0.27257192
23	0x3d06709d	0.03282224
24	0xbe90198e	-0.28144497
25	0xbce3f0ad	-0.027824724
26	0x3ed7929e	0.42104048
27	0x3e2c8820	0.16848803
28	0x3f23a580	0.6392441
29	0xbf30c32b	-0.690478
30	0x3ec29d55	0.3801066
31	0xbf3016f6	-0.68785036

encoder.shared_layers.1.bn.running_var f4 [32]
0	0x3fb82a80	1.438797
1	0x402ff67e	2.7494197
2	0x3fd2198c	1.6414046
3	0x3fb99b03	1.4500431
4	0x3fec0189	1.8437968
5	0x3e87cd76	0.26523942
6	0x403706a9	2.8597815
7	0x3e8a7781	0.270443
8	0x3f006332	0.5015136
9	0x3f0aa519	0.5415817
10	0x3fa2d4a3	1.2721142
11	0x402ff6af	2.7494314
12	0x3d9fb932	0.07798995
13	0x3fd029ba	1.6262734
14	0x3f5015fd	0.8128355
15	0x3f8137ef	1.0095195
16	0x3eaf3d14	0.34226286
17	0x3f789660	0.97104454
18	0x400790b0	2.118206
19	0x4085a833	4.176782
20	0x3f46e485	0.77692443
21	0x3f95b2b2	1.1695158
22	0x3f2e39c1	0.68056875
23	0x3ef3b7bc	0.47601116
24	0x3f5625f7	0.8365168
25	0x3fb5566d	1.4167
26	0x3e1b5fc8	0.15173256
27	0x3e895f3a	0.26830465
28	0x3fd01690	1.6256886
29	0x3f80228f	1.0010546
30	0x3fbaba53	1.4588112
31	0x4082e3dd	4.0903153

encoder.initial_transform.blocks.0.fc.weight f4 [64, 32]
0	0x3e992e9d	0.29918376
1	0xbdf31d18	-0.118707836
2	0x3e875b48	0.2643683
3	0x3d3f99a7	0.046777394
4	0x3d672768	0.056434065
5	0x3e8d71fc	0.27626026
6	0xbd9d1dd5	-0.07671706
7	0x3e0c2acf	0.13688205
8	0x3d974274	0.07385722
9	0x3e7a3f1e	0.2443814
10	0xbdc17ee2	-0.09448029
11	0x3da17fe5	0.07885722
12	0xbaeb468e	-0.0017950104
13	0x3ceb8ce5	0.028753707
14	0x3d145470	0.03621334
15	0xbdb6105c	-0.08889839
16	0x3e1731ff	0.14765166
17	0x3e1ce25c	0.15320724
18	0xbdafae61	-0.08578182
19	0xbdd99e6c	-0.1062592
20	0x3b751518	0.0037396606
21	0x3e0d3b14	0.13792068
22	0xba191d6e	-0.0005840872
23	0x39c0d41c	0.00036779128
24	0x3c44fc8b	0.012023102
25	0x3da94f78	0.082671106
26	0x3d1f520a	0.038896598
27	0x3ba865f9	0.005139109
28	0x3e373878	0.17892635
29	0xbc968d91	-0.018378051
30	0x3e90b465	0.2826263
31	0x3beced94	0.00723047
32	0xbc38b186	-0.011272794
33	0x3e1c496d	0.15262385
34	0x3d1ed961	0.038781527
35	0x3de68807	0.11256414
36	0x3d4269ab	0.047464054
37	0x3e877843	0.2645894
38	0x3ce44890	0.027866632
39	0xbcc66f4a	-0.024222989
40	0x3e0ae77f	0.13564871
41	0xbdc91b78	-0.098196924
42	0x3e2f3b8b	0.17112558
43	0xbdf94443	-0.12171223
44	0x3e23eee4	0.16009098
45	0x3e52e4bd	0.20595069
46	0x3ca4a5a7	0.02009852
47	0x3e31b18a	0.17352882
48	0xbdeb3287	-0.11484247
49	0xbd5ce209	-0.0539265
50	0x3e6a0f91	0.228575
51	0x3e09b790	0.1344893
52	0xbc139253	-0.009007054
53	0xbc620817	-0.013795874
54	0x3e416a79	0.18888272
55	0xbd7e04aa	-0.062016167
56	0x3e3eebb6	0.18644604
57	0x3b32c218	0.0027276333
58	0x3a918ef5	0.0011105227
59	0x3e85984a	0.2609275
60	0x3e521f0c	0.20519656
61	0x3d1a8ce6	0.037732027
62	0x3e0ee4f1	0.13954522
63	0x3e676e2b	0.2260062
64	0x3e319a55	0.17344029
65	0x3d180846	0.037117265
66	0x3e2c0032	0.1679695
67	0x3e62a75a	0.22134152
68	0xbcf335d3	-0.029688751
69	0x3dd37cb0	0.10326517
70	0x3e117b4f	0.14207195
71	0x3dc5f9d5	0.09666792
72	0xbdc92092	-0.098206654
73	0x3d8a89dd	0.067645766
74	0x3e7016ae	0.23446152
75	0xbd338352	-0.04382641
76	0x3e5db878	0.216524
77	0x3e6bf7ba	0.23043719
78	0x3e6b492b	0.2297713
79	0x3e157a7e	0.14597508
80	0x3e2807c8	0.16409218
81	0x3e8b5219	0.27211073
82	0x3e8004f8	0.2500379
83	0x3e280550	0.16408277
84	0x3d4e7807	0.050407436
85	0xbcabef7b	-0.020988217
86	0xbd6d72d7	-0.057970848
87	0xbd745a37	-0.059656348
88	0x3e16ce20	0.14727068
89	0x3d59c6a2	0.053167947
90	0x3d46218b	0.048371833
91	0x3daccf50	0.08437979
92	0xbc97cfcd	-0.018531704
93	0xbc2bca04	-0.010485176
94	0x3be73cfa	0.0070568295
95	0xbc5a22f8	-0.013314001
96	0xbcdc316a	-0.026879031
97	0x3e8ecac4	0.27889073
98	0x3e1d8dbe	0.15386102
99	0x3e029510	0.12752175
100	0xbe0995d3	-0.1343606
101	0x3d441a23	0.04787649
102	0xbe18ca98	-0.14921033
103	0x3df1c48f	0.11805069
104	0x3a9214d4	0.0011145123
105	0x3d3aad4b	0.04557542
106	0x3d3a9a9b	0.0455576
107	0xbdfc9a52	-0.12334122
108	0xbdbb8c79	-0.091576524
109	0xbe7f644f	-0.24940608
110	0x3e0084e6	0.12550697
111	0xbd26a341	-0.040683035
112	0x3e18ebb0	0.14933658
113	0x3dea49a1	0.11439825
114	0x3df21802	0.118209854
115	0xbe2e6135	-0.17029269
116	0x3c48c5c4	0.012254182
117	0x3dbfe776	0.093703195
118	0xbd7fe810	-0.06247717
119	0x3e6fada4	0.23406082
120	0x3d25eab8	0.04050705
121	0xbe81ac1c	-0.25326622
122	0xbd8e7b7f	-0.06957149
123	0xbe89264e	-0.26787037
124	0xbe774e05	-0.24150856
125	0xbdbebdcb	-0.09313544
126	0xbd73ec56	-0.05955156
127	0x3e08ed5b	0.13371794
128	0xbc090a17	-0.008364222
129	0x3c72f40e	0.014828695
130	0x3e92c850	0.2866845
131	0x3e94bf9c	0.29052436
132	0xba8f093c	-0.0010912786
133	0x3c33a7e3	0.01096532
134	0x3d3dfeb9	0.0463855
135	0x3cfc8e86	0.03082968
136	0x3ca18e14	0.019721068
137	0xbe5d75e0	-0.21626997
138	0xbe802d79	-0.25034693
139	0x3c53c03c	0.01292425
140	0xbe884707	-0.2661669
141	0xbd9e3a74	-0.07725993
142	0x3e02e430	0.12782359
143	0xbda16a22	-0.07881571
144	0xbe43c753	-0.19119005
145	0xbe1a4e49	-0.15068926
146	0xbe03faed	-0.1288869
147	0xbe0d671a	-0.13808861
148	0x3d2af2fa	0.041735627
149	0xbd0f5242	-0.034990557
150	0x3e028c33	0.12748794
151	0x3e4943a2	0.19654706
152	0x3c9af476	0.018915396
153	0x3e756467	0.23964082
154	0xbc77ea50	-0.015131548
155	0x3e601711	0.21883799
156	0x3e479a86	0.1949254
157	0x3e6491cb	0.2232124
158	0xbe5ee8bb	-0.21768467
159	0x3e77adad	0.24187346
160	0x3e083ae1	0.1330371
161	0x3c05876f	0.008149966
162	0xbb97a3be	-0.004627674
163	0xbd0cf72c	-0.03441541
164	0x3e8e37b4	0.27776873
165	0x3e1d51e5	0.15363272
166	0x3e8de205	0.27711502
167	0x3d17420d	0.036928225
168	0x3d7d892e	0.061898403
169	0xbe5df5f4	-0.21675855
170	0xbd17f42f	-0.037098106
171	0x3d365b5d	0.044520725
172	0xbe27d61f	-0.16390274
173	0xbe802ec6	-0.25035685
174	0x3e8b3bd3	0.2719408
175	0xbe84e098	-0.259526
176	0xbe322745	-0.17397793
177	0xbe4ccdac	-0.20000333
178	0xbc56535f	-0.013081401
179	0xbe374211	-0.17896296
180	0x3e2965ae	0.16542694
181	0xbe6bcfa2	-0.23028424
182	0x3de36467	0.111031346
183	0x3e40aca7	0.18815862
184	0x3e987118	0.29773784
185	0x3d6e490e	0.05817514
186	0x3ad0bb86	0.0015925027
187	0x3e15103d	0.14556976
188	0x3d85233f	0.06500863
189	0x3e1a33c2	0.15058807
190	0x3cfa5ff2	0.030563328
191	0x3da48e49	0.08034951
192	0x3db882e8	0.090093434
193	0xbde226d0	-0.11042559
194	0x3e554e4e	0.20830652
195	0xbe0494f4	-0.12947446
196	0x3c858a2a	0.016301233
197	0x3e394df2	0.1809614
198	0x3e4b8909	0.19876494
199	0x3e802c02	0.25033575
200	0xbdc1b1ba	-0.09457727
201	0x3e39ec73	0.18156604
202	0xbe2486ab	-0.16066997
203	0xbd68b909	-0.05681709
204	0xbe07753f	-0.1322832
205	0x3d69670c	0.05698304
206	0xbd92530f	-0.071447484
207	0x3d2be9fa	0.041971184
208	0x3d1eb710	0.0387488
209	0xbe56c912	-0.2097514
210	0x3d969395	0.07352368
211	0xbe221190	-0.15827012
212	0xbd62385d	-0.055229533
213	0x3e018c0a	0.12651077
214	0xbde8f0c8	-0.113740504
215	0xbe78fc7e	-0.24315068
216	0xbc56890e	-0.0130942
217	0xbd2a5270	-0.041582525
218	0xbe860e6a	-0.26182872
219	0xbe0255dd	-0.12728067
220	0xbe0ccb0c	-0.13749331
221	0xbd91ed01	-0.07125283
222	0xbcf8b50c	-0.030359767
223	0xbe8c0cdc	-0.2735356
224	0xbe853a02	-0.2602082
225	0x3decec72	0.11568536
226	0xbd4619fa	-0.048364617
227	0xbcfa97d0	-0.030589968
228	0xbe080c67	-0.13285981
229	0xbe639444	-0.22224528
230	0xbe770229	-0.24121918
231	0xbd4afa58	-0.049555153
232	0xbdea0b2a	-0.114279106
233	0x3e82d386	0.25552005
234	0x3e5c14ab	0.21492259
235	0x3dcafc4f	0.09911405
236	0x3e29f7fa	0.16598502
237	0x3e484466	0.19557342
238	0xbe3217e5	-0.17391928
239	0xbd571516	-0.052510343
240	0xbde6d351	-0.11270774
241	0xbdae12ea	-0.08499701
242	0x3e5e4298	0.21705091
243	0x3e24ca66	0.16092834
244	0xbe0490fd	-0.12945934
245	0x3de3aa95	0.1111652
246	0x3d49e615	0.04929169
247	0xbd7bbf99	-0.06146202
248	0xbd4268b9	-0.047463153
249	0xbe87e54d	-0.2654213
250	0xbe81ad1c	-0.25327384
251	0x3e034c75	0.12822135
252	0x3d8c6034	0.06854287
253	0x3bc482aa	0.0059970217
254	0x3e2c5318	0.16828573
255	0xbdea3d36	-0.11437456

encoder.initial_transform.blocks.0.fc.bias f4 [64]
0	0xbe48f803	-0.19625859
1	0x3d94162b	0.07230791
2	0xbdb97b0c	-0.090566725
3	0xbe18f567	-0.14937364
4	0x3dda4d88	0.10659319
5	0x3e497909	0.19675077
6	0x3dd279d1	0.10277141
7	0xbdb8f440	-0.09030962
8	0xbdb16dc2	-0.08663513
9	0xbe4264d5	-0.18983777
10	0xbdbef9b7	-0.09324973
11	0xbe2e8155	-0.17041524
12	0xbde5ce03	-0.11220934
13	0x3e37cae3	0.17948489
14	0x3d897541	0.067118175
15	0x3e284134	0.16431123
16	0xbe6a9377	-0.22907816
17	0x3e00da49	0.12583269
18	0x3d8cd358	0.06876248
19	0x3dddea7a	0.108357385
20	0xbdc820c6	-0.09771876
21	0xbd87f047	-0.06637626
22	0x3d2a3bb8	0.04156086
23	0xbe5e8b1b	-0.21732752
24	0xbe3917e9	-0.18075527
25	0x3e302e86	0.17205247
26	0xbdc8e9e3	-0.09810235
27	0xbe8126ef	-0.25225016
28	0xbe20db0a	-0.15708557
29	0xbe06dbf4	-0.13169843
30	0x3e5f8ae5	0.21830328
31	0x3c2d99cc	0.01059575
32	0xbd89f7d7	-0.06736725
33	0xbd91c171	-0.07116974
34	0xbd9b61da	-0.07587023
35	0xbde4582d	-0.11149631
36	0xbe03d356	-0.12873587
37	0xbe584266	-0.21119079
38	0x3e8cdc41	0.2751179
39	0x3de74b9c	0.11293718
40	0x3e3f8f07	0.18706904
41	0x3e93a999	0.2884033
42	0xbd1ce24e	-0.03830176
43	0x3e4a17f4	0.197357
44	0xbe44e652	-0.19228485
45	0xbc429c4d	-0.011878085
46	0x3e3c71d9	0.18402804
47	0x3d4ee990	0.05051571
48	0xbe44e5a9	-0.19228233
49	0x3e511eb5	0.2042187
50	0xbd8d9937	-0.06913989
51	0x3e6533b2	0.22383001
52	0x3c77aae1	0.015116424
53	0xbd337b48	-0.043818742
54	0xbe1e0809	-0.15432753
55	0xbe400465	-0.18751676
56	0xbb24301b	-0.0025053087
57	0x3d30bc9f	0.043148633
58	0x3e319fb4	0.17346078
59	0xbe2f55c4	-0.1712256
60	0xbdeccbf1	-0.11562336
61	0xbdb68662	-0.0891235
62	0xbbd729d8	-0.0065662675
63	0x3dd0551f	0.101724856

encoder.initial_transform.blocks.0.bn.weight f4 [32]
0	0x3f707a30	0.93936443
1	0x3f8ffb40	1.124855
2	0x3f7275ab	0.947108
3	0x3f643077	0.8913645
4	0x3f87e2a5	1.0616041
5	0x3f5ca37e	0.8618697
6	0x3f63dea6	0.8901161
7	0x3f91c602	1.1388552
8	0x3f8cd03b	1.1001047
9	0x3f89eef1	1.0776044
10	0x3f68cc35	0.90936595
11	0x3f6069f5	0.8766168
12	0x3f5d2693	0.86386985
13	0x3f664d34	0.8996155
14	0x3f8f8892	1.1213553
15	0x3f9142f2	1.1348555
16	0x3f7cf488	0.98810625
17	0x3f8865b3	1.0656036
18	0x3f5d787b	0.86511964
19	0x3f8e826d	1.1133553
20	0x3f6742fe	0.90336597
21	0x3f7d6726	0.9898552
22	0x3f5f0188	0.8711171
23	0x3f8de6ba	1.1086037
24	0x3f6ad854	0.9173634
25	0x3f8aab69	1.083356
26	0x3f83b17a	1.0288537
27	0x3f87f30b	1.0621046
28	0x3f888677	1.0666035
29	0x3f8bfb4c	1.0936065
30	0x3f5eafa8	0.8698678
31	0x3f836ff8	1.0268545

encoder.initial_transform.blocks.0.bn.bias f4 [32]
0	0x3de14364	0.10999182
1	0x3d1daff0	0.038497865
2	0xbdb84e1e	-0.08999275
3	0x3d28f28e	0.041246943
4	0x3dc6a3c8	0.096992075
5	0x3df5bdd4	0.119990975
6	0xbdfadc9c	-0.12249109
7	0xbdc82d13	-0.09774222
8	0x3c851e2d	0.01624974
9	0x3df2ab5c	0.118490905
10	0x3df84d24	0.121240884
11	0x3d7deefd	0.061995495
12	0xbdd26a7c	-0.102742165
13	0xbdef9911	-0.11699117
14	0x3d75be78	0.0599961
15	0x3e059f61	0.1304908
16	0xbe0080a4	-0.12549073
17	0x3de2cc49	0.110741206
18	0x3e082eb1	0.13299061
19	0xbd91e9a3	-0.07124641
20	0xbcb22c81	-0.021749737
21	0xbca9fcb2	-0.020750377
22	0x3d0d4ce2	0.03449715
23	0xbd9f388d	-0.07774458
24	0x3dbffc05	0.09374241
25	0x3d87ac1d	0.06624625
26	0x3d9fbb3a	0.077993825
27	0x3d8fdbee	0.0702437
28	0x3da1c83c	0.0789952
29	0x3dc4978a	0.09599216
30	0x3b23dddd	0.0025004067
31	0xbda9f8aa	-0.08299382

encoder.initial_transform.blocks.0.bn.running_mean f4 [32]
0	0xbe63088a	-0.22171226
1	0x3d94aac4	0.072591335
2	0x3e09084f	0.13382076
3	0xbe1eab99	-0.15495147
4	0xbded461d	-0.11585639
5	0x3be6592c	0.007029673
6	0x3db07a3e	0.08617066
7	0x3dcc7ff1	0.099853404
8	0xbdca3af7	-0.09874528
9	0xbe1829c7	-0.14859687
10	0xbde9cbde	-0.11415838
11	0xbd13fc47	-0.036129262
12	0xbdb143f8	-0.08655542
13	0xbd820520	-0.06348634
14	0x3e5c239c	0.21497959
15	0x3e93ccff	0.28867337
16	0xbe3eef01	-0.1864586
17	0x3dceb621	0.10093332
18	0xbda12245	-0.078678645
19	0xbd3320b3	-0.043732356
20	0xbe5a5cf0	-0.21324515
21	0xbed2dae8	-0.41182637
22	0xbb9169e6	-0.004437673
23	0xbe9d1c86	-0.30685824
24	0xbb7a4196	-0.0038186065
25	0x3e5145e9	0.20436825
26	0xbb6213a5	-0.0034496572
27	0xbe890ce8	-0.2676766
28	0x3e069e97	0.13146435
29	0xbe9eb1de	-0.30995077
30	0x3e26f305	0.16303642
31	0xbd292107	-0.041291263

encoder.initial_transform.blocks.0.bn.running_var f4 [32]
0	0x3ea24fd6	0.31701535
1	0x3edd2d62	0.43198687
2	0x3fc788e7	1.5588654
3	0x3eb15c53	0.3464075
4	0x4009c076	2.152372
5	0x40322a95	2.783849
6	0x3e463653	0.1935666
7	0x3f6fcda1	0.9367314
8	0x3e778f4c	0.24175757
9	0x3ecba722	0.3977595
10	0x3e2d60d1	0.16931464
11	0x3ec2138b	0.37905535
12	0x3eab95f9	0.33512858
13	0x4007469c	2.1136847
14	0x3e9fd0ae	0.31213897
15	0x402cde51	2.701069
16	0x3eb98aff	0.36238858
17	0x3f521180	0.8205795
18	0x3e91f9db	0.28510937
19	0x3e7e0288	0.24805653
20	0x3e0a1fc5	0.13488682
21	0x4038e460	2.888939
22	0x3f35a881	0.7096024
23	0x3f21623c	0.6304052
24	0x3f493167	0.78591007
25	0x3e216cbf	0.1576414
26	0x3e458a4b	0.19291036
27	0x3e68fd8a	0.22752967
28	0x3f17aa50	0.5924425
29	0x3f418d3e	0.75606143
30	0x3f865581	1.0494844
31	0x3e4084d2	0.18800667

encoder.initial_transform.blocks.1.fc.weight f4 [64, 32]
0	0x3e3f6e7e	0.18694493
1	0xbe9b1aa6	-0.3029377
2	0x3db91b95	0.09038464
3	0x3c0ee20f	0.008720889
4	0xbd04db3f	-0.032435652
5	0xbe33f579	-0.17574109
6	0x3dc2df3c	0.09515235
7	0x3cc0249d	0.023454959
8	0xbdf9210c	-0.12164506
9	0xbcee91ab	-0.029122194
10	0x3dd18456	0.10230319
11	0xbb8b79cf	-0.004256464
12	0xbd20fc34	-0.03930302
13	0x3e1e6ba2	0.15470746
14	0xbe55b52f	-0.20869897
15	0xbd419ca8	-0.04726854
16	0x3b006ec9	0.0019597283
17	0xbd7c32eb	-0.061571997
18	0x3e7689d5	0.24076016
19	0xbc877ce7	-0.01653905
20	0xbd44dd4e	-0.048062615
21	0xbd0688c5	-0.032845277
22	0x3d6953ea	0.056964792
23	0xbd3c27f5	-0.045936543
24	0xbc0cdd73	-0.0085977195
25	0xbe95490a	-0.29157287
26	0x3d540c45	0.051769514
27	0x3e30223a	0.17200556
28	0xbe4ca625	-0.19985254
29	0xbe6d7121	-0.23187687
30	0x3c4e700a	0.012599954
31	0x3e1d9629	0.15389313
32	0x3e974009	0.29541042
33	0xbdde2465	-0.108467855
34	0xbdb48a93	-0.088154934
35	0x3dfa8903	0.12233164
36	0xbdb79838	-0.0896458
37	0x3d6e362a	0.058157124
38	0xbdd3d378	-0.10343069
39	0x3d9784cf	0.07398378
40	0x3e7de142	0.2479296
41	0xbd4eaaca	-0.050455846
42	0xbd61da3e	-0.055139773
43	0xbdd23a30	-0.10265005
44	0xbc26da8b	-0.010183941
45	0x3d2e2fdf	0.042526122
46	0x3d2e6c7e	0.042583935
47	0xbdb5e336	-0.08881228
48	0xbd09e2b0	-0.03366345
49	0xbe70ed82	-0.23528102
50	0xbd8eab14	-0.06966224
51	0x3e0d15a3	0.13777785
52	0x3bfc06f9	0.007691261
53	0x3c9399a8	0.018017605
54	0xbe5d471c	-0.21609157
55	0xbddb4c83	-0.10707953
56	0xbd55be8b	-0.05218367
57	0x3c7a8432	0.015290307
58	0x3da01da3	0.07818153
59	0xbc7fe6b3	-0.015618968
60	0xbdf29ec9	-0.11846692
61	0xbe0a8312	-0.13526562
62	0xbe3f1fd5	-0.18664487
63	0x3e595966	0.21225509
64	0x3c719aee	0.014746411
65	0x3e961f08	0.2932055
66	0x3deded61	0.11617542
67	0x3e440436	0.19142231
68	0x3c4a9643	0.012364927
69	0x3d1ca3a9	0.038242016
70	0x3d45196c	0.048119947
71	0xbd348f87	-0.04408219
72	0x3d08207b	0.0332341
73	0x3d9dad28	0.076990426
74	0x3d1fe179	0.039033387
75	0xbe400c65	-0.18754728
76	0xbc029ce9	-0.007971981
77	0xbcd0e4b9	-0.025499688
78	0xbe2e0aca	-0.16996303
79	0x3d095e0a	0.03353695
80	0x3e2967be	0.16543481
81	0xbd63903a	-0.055557467
82	0x3d0b76fe	0.034049027
83	0x3d9d92d7	0.07694023
84	0x3e393144	0.180852
85	0x3c1fa923	0.009744915
86	0x3de88b38	0.11354679
87	0xbe03809d	-0.12842031
88	0xbe610798	-0.21975553
89	0x3ca0d234	0.019631483
90	0xbc9e5a34	-0.019330122
91	0xbd233997	-0.039849844
92	0xbdae43b1	-0.08509005
93	0xbd97b31f	-0.074072115
94	0x3e0122d9	0.1261095
95	0x3d7dbe52	0.06194908
96	0x3e622a94	0.22086555
97	0xbd9d76ee	-0.076887
98	0xbd43ce23	-0.04780401
99	0xbb268090	-0.002540622
100	0xbe2ac8c7	-0.16678153
101	0x3c256aeb	0.010096292
102	0xbdc90405	-0.0981522
103	0xbd7b1cbe	-0.061306708
104	0x3e8a2f9d	0.2698945
105	0xbe3ccfa9	-0.18438591
106	0x3d1a8f9b	0.03773461
107	0xbd4d61b6	-0.050142013
108	0xbe2a1466	-0.16609344
109	0xbd37ea51	-0.044901196
110	0xbe55dad4	-0.20884258
111	0xbe90d7fe	-0.2828979
112	0x3daf7013	0.08566298
113	0xbde38fbf	-0.11111402
114	0xbe25d6fb	-0.1619529
115	0x3d3784d0	0.044804394
116	0xbd3cfcd1	-0.046139542
117	0x3c8bdd40	0.017073274
118	0xbe4dbb8f	-0.20091079
119	0x3e07a577	0.13246714
120	0x3e427747	0.18990813
121	0xbe8a47f6	-0.27008027
122	0xbdaa4c8d	-0.08315382
123	0xbc65092c	-0.0139792375
124	0xbd37eac7	-0.044901635
125	0x3ca3ac3b	0.019979587
126	0xbe857096	-0.2606246
127	0xbd89e975	-0.067339815
128	0x3e5930c9	0.21210016
129	0xbdb4cf89	-0.08828647
130	0xbe0833f9	-0.13301076
131	0xbe24d816	-0.16098055
132	0x3de2b958	0.11070508
133	0x3e889e09	0.2668307
134	0xbdd34b02	-0.10317041
135	0xbdc2c55a	-0.09510298
136	0x3de498b4	0.11161938
137	0xbe6de4b5	-0.23231776
138	0xbe24800a	-0.16064468
139	0xbe57e1dc	-0.21082252
140	0x3be76039	0.007061031
141	0x3cc725a2	0.024309937
142	0xbe3d57d9	-0.18490542
143	0xbe4f1410	-0.20222497
144	0x3d06a097	0.032867994
145	0x3d2bf034	0.041977122
146	0xbca45605	-0.020060549
147	0x3d354133	0.044251632
148	0xbe1c2ad9	-0.1525072
149	0xbce49206	-0.02790166
150	0xbbd1c708	-0.0064019
151	0x3e317bfe	0.17332456
152	0x3dd85352	0.10562767
153	0xbd9e2eeb	-0.07723793
154	0xbe737ed5	-0.23778851
155	0x3ddff4a7	0.109353356
156	0xbd131509	-0.035908733
157	0x3deaf26b	0.11472019
158	0xbe84535e	-0.25844854
159	0x3beea175	0.007282431
160	0xbd6dc16c	-0.05804579
161	0x3d033fa7	0.032043125
162	0x3e8cc0e9	0.2749093
163	0xbe6c4f14	-0.23077041
164	0x3d939554	0.072062165
165	0xbd9e40e8	-0.07727224
166	0x3dcf9aee	0.10136972
167	0xbc9f6cc2	-0.01946104
168	0x3d8a0849	0.067398615
169	0x3e9265a8	0.28593183
170	0x3e5b7a77	0.21433435
171	0x3d2ab61f	0.04167759
172	0x3e8428c4	0.25812352
173	0x3e14e147	0.14539061
174	0x3dd277e3	0.10276773
175	0x3e95152a	0.2911771
176	0x3e898631	0.26860192
177	0xbb1b0fbb	-0.00236605
178	0x3cebaf28	0.028770044
179	0xbc5b35c6	-0.01337952
180	0xbc404034	-0.011734057
181	0x3ccd07aa	0.025028069
182	0x3d6deccb	0.05808715
183	0x3e7a2e24	0.24431664
184	0x3d6d8134	0.057984546
185	0x3d73d460	0.05952871
186	0x3e26b61d	0.16280408
187	0xbde0f99f	-0.109851114
188	0x3e7bd087	0.24591266
189	0xbd9e3b68	-0.077261746
190	0xbc0adcef	-0.008475526
191	0xbce4ce6c	-0.02793046
192	0xbe7fd10b	-0.24982087
193	0x3dc3e177	0.095644884
194	0xbe001807	-0.12509166
195	0xbe1fcf50	-0.15606427
196	0xbda61527	-0.08109503
197	0x3dca61f8	0.09881967
198	0xbe02ddc8	-0.12779915
199	0x3dfe8d9e	0.12429355
200	0xbdcc6c81	-0.09981633
201	0xbce7383b	-0.028225055
202	0xbe923477	-0.28555652
203	0xbe5bc024	-0.21460015
204	0xbc2f901c	-0.010715511
205	0xbe6f542d	-0.23371954
206	0xbc9c0264	-0.019044109
207	0xbd2e5f23	-0.0425712
208	0x3e35faf8	0.17771518
209	0x3c81c953	0.01584307
210	0x3e4d8475	0.2007006
211	0x3e463d70	0.19359374
212	0xbd6287fb	-0.055305462
213	0x3dd0e56c	0.10200009
214	0x3cbce68e	0.023059156
215	0xbbda99dc	-0.0066711735
216	0x3d72f2be	0.05931353
217	0xbe36adfd	-0.17839809
218	0x3d5d88f3	0.054085683
219	0x3e644c21	0.22294666
220	0xbe2d3125	-0.16913278
221	0x3dfc52d2	0.12320484
222	0x3c485cca	0.012229154
223	0x3cdfa5cc	0.027300738
224	0xbc5eb28e	-0.013592375
225	0x3d91be59	0.07116384
226	0xbe2207a5	-0.15823229
227	0xbe839b2c	-0.25704324
228	0xbe6408a2	-0.22268918
229	0xbe53c041	-0.20678808
230	0xbe089311	-0.13337351
231	0xbe3fafb9	-0.18719377
232	0xbe76934d	-0.24079628
233	0x3e5eecca	0.21770015
234	0x3d9abe58	0.075558364
235	0x3e803b1a	0.2504509
236	0x3e7b0745	0.24514492
237	0x3bd2661c	0.006420864
238	0x3e674f73	0.22588901
239	0x3e26f3fd	0.16304012
240	0x3e18a29e	0.14905784
241	0x3d0bb1a4	0.03410496
242	0x3e80edac	0.2518133
243	0xbe094f04	-0.13409048
244	0xbe0ee24f	-0.13953517
245	0x3d9c980c	0.07646188
246	0x3c22b1df	0.009930103
247	0xbe3fa282	-0.18714336
248	0xbe32db3f	-0.17466448
249	0x3d707eae	0.05871456
250	0xbd187f78	-0.03723094
251	0x3d42aa12	0.047525473
252	0xbc34fc5e	-0.011046497
253	0x3e8856dd	0.2662877
254	0x3e3ab013	0.1823123
255	0xbd92637f	-0.071478836

encoder.initial_transform.blocks.1.fc.bias f4 [64]
0	0xbe41871f	-0.18899201
1	0x3d8e3f9a	0.06945725
2	0x3daff9b9	0.08592553
3	0x3ca146f4	0.019687153
4	0x3dcad386	0.09903626
5	0x3e3ea91d	0.18619199
6	0xbccac4d8	-0.024752066
7	0x3d9cc550	0.07654822
8	0xbe29e26f	-0.16590284
9	0x3d6b2aea	0.057413973
10	0x3dddfdc5	0.10839418
11	0x3e3aba81	0.18235208
12	0xbd87e339	-0.06635136
13	0x3dd24020	0.10266137
14	0x3e2f464e	0.17116663
15	0xbd8d34e2	-0.06894852
16	0xbc7d86d2	-0.015474038
17	0x3e0bb04f	0.13641475
18	0xbabcac86	-0.0014394678
19	0xbe1de28e	-0.15418455
20	0x3e1d961a	0.1538929
21	0xbcb7f603	-0.022456175
22	0xbe26a01a	-0.16272011
23	0x3df529fd	0.11970899
24	0x3e022bfe	0.12712094
25	0xbe20e78e	-0.15713331
26	0x3d86c83e	0.06581162
27	0xbe677b1a	-0.22605553
28	0xbe1a641f	-0.15077256
29	0xbd580d36	-0.052746974
30	0x3e2851b7	0.16437422
31	0xbd057dc4	-0.032590643
32	0x3dabc35c	0.08386871
33	0xbe0fde8e	-0.14049742
34	0xbe26da4a	-0.16294208
35	0xbd43cebe	-0.047804587
36	0xbcbe683c	-0.023243062
37	0x3c9aaed7	0.018882198
38	0x3da0da69	0.078541584
39	0x3e6c6d5a	0.2308859
40	0xbd0cdb6c	-0.034388945
41	0xbda8305d	-0.082123496
42	0xbe01e505	-0.1268502
43	0xbe414410	-0.1887362
44	0xbe96b692	-0.29436165
45	0x3e78fc0e	0.24314901
46	0xbe27c6fa	-0.16384497
47	0xbcb19576	-0.021677714
48	0xbb9ed015	-0.0048465827
49	0xbc8ff46e	-0.017572608
50	0xbe38e5b4	-0.18056375
51	0xbbabe6fe	-0.0052460423
52	0xbe33fa93	-0.17576055
53	0xbbbfa2d2	-0.005848267
54	0x3df6592a	0.120287254
55	0x3d5d1a8c	0.053980395
56	0xbe0bbe20	-0.13646746
57	0x3e240c02	0.16020206
58	0xbe018ee8	-0.1265217
59	0xbc8c7948	-0.017147675
60	0x3d6ecc97	0.05830058
61	0x3e79d9bb	0.24399464
62	0x3d2f9fb8	0.04287693
63	0x3e4eae98	0.2018379

encoder.initial_transform.blocks.1.bn.weight f4 [32]
0	0x3f85ad69	1.0443546
1	0x3f83d250	1.0298557
2	0x3f835f8c	1.0263534
3	0x3f8acc29	1.0843555
4	0x3f8bfb3c	1.0936046
5	0x3f8e7206	1.1128547
6	0x3f8865be	1.0656049
7	0x3f695f97	0.91161484
8	0x3f698073	0.9121162
9	0x3f733a88	0.95011187
10	0x3f8cb7a5	1.0993544
11	0x3f793e84	0.97361016
12	0x3f62c824	0.8858664
13	0x3f917418	1.1363554
14	0x3f5e2c98	0.86786795
15	0x3f7296b0	0.9476118
16	0x3f8df736	1.1091068
17	0x3f5c519c	0.86062026
18	0x3f5f848b	0.8731162
19	0x3f8f1e0d	1.1181046
20	0x3f5c207d	0.85987073
21	0x3f828287	1.0196084
22	0x3f69f2db	0.91386193
23	0x3f89ce23	1.0766033
24	0x3f917418	1.1363554
25	0x3f89f71f	1.077854
26	0x3f5e2ca7	0.86786884
27	0x3f6ed007	0.93286175
28	0x3f5e7e83	0.8691179
29	0x3f909f1c	1.1298556
30	0x3f8c2c74	1.0951066
31	0x3f760b54	0.96111035

encoder.initial_transform.blocks.1.bn.bias f4 [32]
0	0x3db33035	0.08749429
1	0x3da55d17	0.08074396
2	0xbdc1853d	-0.09449241
3	0x3c830ffe	0.015998837
4	0x3ddc24b5	0.10749189
5	0x3d9b1fc6	0.0757442
6	0xbdccc8fb	-0.099992715
7	0xbdb6424f	-0.08899366
8	0xbda86f59	-0.08224363
9	0x3ded8cc1	0.11599112
10	0x3deafdca	0.11474188
11	0x3d4abd1c	0.049496755
12	0xbdf2ab9e	-0.1184914
13	0xbdb7cad6	-0.08974235
14	0x3c0b42bc	0.008499797
15	0x3df2ab97	0.118491344
16	0xbd8b4125	-0.06799535
17	0x3e00c220	0.12574053
18	0x3e0e537a	0.13899031
19	0xbdf5be01	-0.11999131
20	0x3b75b440	0.003749147
21	0xbdc2091a	-0.09474392
22	0x3db435b7	0.08799308
23	0xbde767d4	-0.112991005
24	0xbd3c6727	-0.04599681
25	0xbc030756	-0.0079973545
26	0x3c407a7d	0.0117479535
27	0xbdc497be	-0.09599255
28	0x3cba5c33	0.022749042
29	0x3db122d8	0.08649224
30	0x3dfbe29b	0.12299081
31	0xbd46a564	-0.048497573

encoder.initial_transform.blocks.1.bn.running_mean f4 [32]
0	0xbeacd325	-0.3375484
1	0x3e503017	0.20330845
2	0x3d327f4a	0.043578424
3	0xbc1e10c9	-0.009647557
4	0x3e7e3ac9	0.24827112
5	0x3ecb8b5f	0.3975477
6	0xbe2d0b11	-0.16898753
7	0x3cc3bcd2	0.023893747
8	0x3dde3490	0.10849869
9	0xbd88e6ee	-0.06684671
10	0x3dc9b1d7	0.098483734
11	0x3dbb5030	0.09146154
12	0x3bd72b36	0.0065664304
13	0x3e911144	0.28333485
14	0x3e70becf	0.23510288
15	0xbb42ab6e	-0.002970423
16	0xbc56ad1d	-0.013102797
17	0xbc8a94b0	-0.016916603
18	0x3d8aa09e	0.067689165
19	0xbcff588f	-0.031170158
20	0x3e157615	0.14595826
21	0xbd5ef362	-0.054431327
22	0xbe7a94da	-0.24470845
23	0x3e99770c	0.29973638
24	0x3d0e4b35	0.03473969
25	0xbe691b5a	-0.2276434
26	0x3dace55c	0.08442184
27	0x3dd642d4	0.10461965
28	0xbdfe511f	-0.12417816
29	0x3c3cb69e	0.011518149
30	0x3e67c339	0.22633065
31	0xbd2b7e0a	-0.041868247

encoder.initial_transform.blocks.1.bn.running_var f4 [32]
0	0x3f35115f	0.7072963
1	0x3e8222ff	0.25417325
2	0x3dce6b61	0.10079075
3	0x3eed8e81	0.46397784
4	0x3f172a18	0.59048605
5	0x3fb78c9d	1.4339787
6	0x3e62057e	0.22072408
7	0x3f7e474f	0.9932756
8	0x3f91faad	1.1404625
9	0x3f152535	0.582599
10	0x3ec17bce	0.37789768
11	0x3d9275e0	0.07151389
12	0x3e4632e3	0.19355349
13	0x3f68553e	0.9075507
14	0x3ebb0b04	0.36531842
15	0x3e0b5f94	0.13610679
16	0x3eb68961	0.35651687
17	0x3f3861e2	0.7202436
18	0x3dba43c8	0.090949595
19	0x3ef8f7e8	0.48626637
20	0x3f05f2b8	0.52323484
21	0x3ebe67b3	0.3718849
22	0x3f78d55d	0.97200567
23	0x3f243728	0.6414666
24	0x3d9c2e35	0.07626001
25	0x3fc8c2bb	1.5684427
26	0x3e57c5d5	0.2107156
27	0x3fd1bb32	1.6385252
28	0x3e82feae	0.2558493
29	0x3e814f55	0.25255838
30	0x3f515b22	0.8177968
31	0x3df4cc74	0.11953059
