models/migraine_model.pth (torch, 125942 bytes, 198 tensors)

encoder.shared_layers.0.fc.weight f4 [34, 17]
3.8720582 2.2022715 2.5607576 -3.4215138 1.4814401 -2.6515965 3.8659482 -0.2622693
-3.7053587 3.573078 2.8154685 -2.3276024 -2.312892 -1.8842058 3.8324218 -1.2435513
-0.5611309 -0.44446 3.510088 -0.8406199 -3.622924 1.2888552 -3.494787 -2.7953167
0.062043913 1.0518383 -2.5161822 -0.49590856 0.4680814 -1.3049983 -3.413764 -2.7712927
-2.6509676 -0.41392124 1.9728851 -1.2163991 3.422791 3.6297846 -2.5324767 -1.4409999
3.9232905 1.9772455 -1.8499696 4.2781997 3.169705 -0.8752519 3.9451041 2.9898458
3.401573 -2.3494623 1.0558438 2.9355266 4.2059503 -4.01457 -4.276575 2.061357
2.6529477 -2.1667397 -3.4840822 0.4927297 -3.3634417 3.916161 3.3131402 -4.0996857
2.1631715 -3.9032352 3.2769008 2.082064 -1.6067535 0.8664509 -2.1203446 0.7097384
2.3453128 -1.9243957 2.9485543 1.3774354 0.61053413 0.0021843556 -3.1334238 -1.540442
3.247218 -0.09808161 0.2079387 1.0951679 0.7387635 0.5257233 1.5826522 2.3793626
-1.5885363 -1.1739086 0.8911425 -2.931646 -0.15799665 -1.2725836 0.57653755 0.60950345
-3.7999182 -0.47010097 -1.2387925 -0.85550934 1.6889896 0.6895307 -3.0952814 -2.7960148
-3.3244505 -3.1475532 4.415848 3.2711732 -3.4823287 -1.5123953 -2.488577 -3.8965251
2.1417074 4.4931536 -3.5034766 2.8171105 -3.9696379 3.0521374 3.4048998 3.7029648
1.0888709 2.667919 -2.4048464 2.545215 3.3711908 -0.3060114 3.8060305 -2.7362485
2.259809 -2.1199696 1.3050975 -3.017338 0.28210333 2.652859 2.68667 1.2137945
1.8756841 2.3288295 -3.0255241 -3.6239374 0.36725765 -4.2858667 -3.6267295 -3.2996428
3.6169412 -3.9790363 -0.8948223 3.039054 1.1257046 -3.6190317 -0.61730736 -0.5545236
1.3985487 2.937357 -2.728301 4.360799 3.2532024 2.4844158 3.8859344 4.275526
-3.1965175 2.5275593 4.1661763 -2.1077914 2.22156 4.0020065 2.4783115 4.3804026
-1.6340997 1.6407279 2.4725733 2.5413532 -2.8946586 -3.3139453 -0.869947 0.7231637
-1.3145407 -2.139376 -3.168483 0.44679087 3.8759558 -0.99725693 -1.5632538 2.681132
1.3889999 3.7676916 1.534043 2.8949804 -2.3277109 -1.8229743 -0.6530578 -0.80470353
1.2200215 -0.06372556 -1.4517099 -2.6702976 0.8004647 1.962631 3.1703744 -2.83453
1.860948 0.3519875 1.9598504 -1.0633177 1.5013374 -0.89977914 4.160973 0.019049088
-3.8557634 3.3266754 0.717715 -1.1270941 0.8338866 0.85443777 -2.9173534 -2.355847
3.8026063 -3.995808 3.407047 -0.61397624 -2.9162123 1.3238684 1.1318822 -0.9449876
-1.3547095 2.977096 -2.953438 3.5224497 -0.73371834 -3.496091 2.1979 0.24300316
1.7799143 -2.2568617 0.9167894 1.147276 -1.1381024 0.5507466 0.44696772 0.97288334
3.2015953 -2.9743912 -0.5592158 1.9975154 0.020519696 -0.6118881 1.8160034 -2.7667263
-1.3979541 1.5305202 1.5225376 -2.5542645 1.8797526 -0.04089776 1.7237272 -2.4377546
00000000: cdcf 7740 04f2 0c40 74e3 2340 15fa 5ac0
00000010: d49f bd3f c2b3 29c0 b26b 7740 2948 86be
00000020: 9924 6dc0 4fad 6440 a330 3440 70f7 14c0
00000030: 6c06 14c0 a82d f1bf 6646 7540 b02c 9fbf
00000040: 46a6 0fbf 4390 e3be 48a5 6040 de32 57bf
00000050: fddd 67c0 35f9 a43f 97aa 5fc0 78e6 32c0
00000060: c221 7e3d a3a2 863f 2109 21c0 bae7 fdbe
00000070: 5ea8 ef3e 2f0a a7bf 1c7b 5ac0 dc5c 31c0
00000080: 74a9 29c0 7ced d3be 8087 fc3f f7b2 9bbf
00000090: 020f 5b40 644e 6840 1914 22c0 af72 b8bf
000000a0: 3117 7b40 6116 fd3f cecb ecbf 03e7 8840
000000b0: 72dc 4a40 8210 60bf 967c 7c40 a259 3f40
000000c0: 5fb3 5940 975d 16c0 e425 873f abdf 3b40
000000d0: 2597 8640 5c77 80c0 b4d9 88c0 46ed 0340
000000e0: e5c9 2940 ddab 0ac0 34fb 5ec0 1147 fc3e
000000f0: a142 57c0 62a2 7a40 7d0a 5440 a030 83c0
00000100: 6771 0a40 9bce 79c0 beb8 5140 8940 0540
00000110: 19aa cdbf bacf 5d3f bab3 07c0 6ab1 353f
00000120: 9b19 1640 9952 f6bf 1db5 3c40 ce4f b03f
00000130: f74b 1c3f 6827 0f3b 048a 48c0 342d c5bf
00000140: 6bd2 4f40 03df c8bd e2ed 543e 762e 8c3f
00000150: 9b1f 3d3f cd95 063f 5994 ca3f 7a47 1840
00000160: 2855 cbbf a342 96bf ea21 643f 17a0 3bc0
00000170: e0c9 21be 05e4 a2bf f797 133f 6b08 1c3f
00000180: dc31 73c0 13b1 f0be c190 9ebf a902 5bbf
00000190: d030 d83f 1585 303f 1719 46c0 e8f1 32c0
000001a0: ccc3 54c0 8371 49c0 a04e 8d40 e75a 5140
000001b0: 79de 5ec0 2b96 c1bf d844 1fc0 ab60 79c0
000001c0: bc11 0940 eac7 8f40 f638 60c0 8a4b 3440
000001d0: 8c0e 7ec0 3856 4340 e1e9 5940 60fd 6c40
000001e0: 1f60 8b3f 2fbf 2a40 01e9 19c0 cde4 2240
000001f0: 97c1 5740 87ad 9cbe 0196 7340 b21e 2fc0
00000200: b6a0 1040 95ad 07c0 6f0d a73f 111c 41c0
00000210: d96f 903e 71c8 2940 67f2 2b40 9e5d 9b3f
00000220: 6b16 f03f 8b0b 1540 30a2 41c0 97ee 67c0
00000230: 3209 bc3e d225 89c0 561c 68c0 592d 53c0
00000240: f77b 6740 88a8 7ec0 1313 65bf dc7f 4240
00000250: 1717 903f 379e 67c0 db07 1ebf 42f5 0dbf
00000260: a503 b33f a8fd 3b40 7c9c 2ec0 aa8b 8b40
00000270: 7834 5040 ab00 1f40 26b3 7840 1cd1 8840
00000280: be93 4cc0 88c3 2140 5151 8540 0ee6 06c0
00000290: 0a2e 0e40 7010 8040 a89c 1e40 422c 8c40
000002a0: 2e2a d1bf 5f03 d23f a43e 1e40 88a5 2240
000002b0: 1642 39c0 ae17 54c0 d9b4 5ebf 4221 393f
000002c0: df42 a8bf 89eb 08c0 6dc8 4ac0 c6c1 e43e
000002d0: a90f 7840 3b4c 7fbf b318 c8bf ab97 2b40
000002e0: c0ca b13f dc21 7140 855b c43f 5c47 3940
000002f0: 37f9 14c0 3957 e9bf cc2e 27bf 0d01 4ebf
00000300: aa29 9c3f 8c82 82bd a1d1 b9bf 28e6 2ac0
00000310: 41eb 4c3f 7e37 fb3f 6ae7 4a40 f168 35c0
00000320: 8b33 ee3f b537 b43e 61dc fa3f cb1a 88bf
00000330: d32b c03f ed57 66bf b126 8540 d50c 9c3c
00000340: d4c4 76c0 40e8 5440 2cbc 373f 9f44 90bf
00000350: 9879 553f 6fbc 5a3f ebb5 3ac0 32c6 16c0
00000360: e75d 7340 51bb 7fc0 0f0d 5a40 8c2d 1dbf
00000370: 39a3 3ac0 8574 a93f 84e1 903f b5ea 71bf
00000380: 1f67 adbf be88 3e40 2105 3dc0 d16f 6140
00000390: f7d4 3bbf f4bf 5fc0 65aa 0c40 d2d5 783e
000003a0: 3bd4 e33f 6c70 10c0 b6b2 6a3f f1d9 923f
000003b0: 57ad 91bf bbfd 0c3f f4d8 e43e e20e 793f
000003c0: f0e6 4c40 6d5c 3ec0 c428 0fbf 96ae ff3f
000003d0: ec18 a83c b3a4 1cbf cd72 e83f 0b12 31c0
000003e0: 29f0 b2bf 16e8 c33f 83e2 c23f 1279 23c0
000003f0: bc9b f03f 6984 27bd 18a3 dc3f 2c04 1cc0

encoder.shared_layers.0.fc.bias f4 [34]
-2.9020605 1.7939198 0.18600628 3.5757957 -1.2350203 0.37745944 -3.263906 -0.60186994
2.2591434 -0.6903685 -0.4088025 1.0753318 0.4972522 1.1239322 -1.6127961 -1.117422
-1.7774134 1.0452818 2.5530388 -0.18465371 1.123546 -0.45201418 2.249871 -2.8139076
0.8849075 -0.012382767 2.651816 -0.17045073 2.9230034 2.5482726 2.1165779 1.4949585
-0.38454422 -0.06769584
00000000: 5cbb 39c0 2a9f e53f 6e78 3e3e d6d9 6440
00000010: 2515 9ebf 5d42 c13e d6e3 50c0 2614 1abf
00000020: ce95 1040 fdbb 30bf 904e d1be 79a4 893f
00000030: d797 fe3e 03dd 8f3f 1a70 cebf af07 8fbf
00000040: 4882 e3bf cbcb 853f fd64 2340 dd15 3dbe
00000050: 5bd0 8f3f 676e e7be e3fd 0f40 1017 34c0
00000060: 4c89 623f 17e1 4abc 5ab7 2940 a38a 2ebe
00000070: 7d12 3b40 e616 2340 0376 0740 cd5a bf3f
00000080: fbe2 c4be 1ea4 8abd

encoder.shared_layers.0.bn.weight f4 [17]
0.22464053 2.6223755 1.1307075 0.20703165 1.4021647 2.4478872 0.49890932 1.3403528
1.2881541 0.8732231 1.1210687 1.1065751 0.3397031 0.9540498 2.1413343 -0.036459703
0.9926954
00000000: 2b08 663e 00d5 2740 06bb 903f 1b00 543e
00000010: 227a b33f 2faa 1c40 0b71 ff3e ae90 ab3f
00000020: 3ce2 a43f 8d8b 5f3f 2e7f 8f3f 41a4 8d3f
00000030: 91ed ad3e 9c3c 743f 9f0b 0940 c556 15bd
00000040: 4921 7e3f

encoder.shared_layers.0.bn.bias f4 [17]
0.52264583 0.4715382 0.5120335 -0.3726357 -0.45906505 -0.0817019 0.19781123 1.4201232
-0.43857712 -0.27489114 0.25780717 0.11371783 0.519612 0.2872236 0.27723086 0.2468149
-0.028373566
00000000: 1ecc 053f 746d f13e a114 033f 1bca bebe
00000010: 930a ebbe 5353 a7bd 078f 4a3e 99c6 b53f
00000020: 2e8d e0be 88be 8cbe 4dff 833e e5e4 e83d
00000030: 4b05 053f f90e 933e 34f1 8d3e 0cbd 7c3e
00000040: ae6f e8bc

encoder.shared_layers.0.bn.running_mean f4 [17]
-12.395542 12.278183 -14.461785 3.4801679 -1.6706979 -1.3023008 -9.336362 1.7417631
14.769645 -17.114595 -7.8373737 3.0413847 4.570775 1.3731544 -6.458767 2.6530402
-0.2357722
00000000: 2454 46c1 7073 4441 7963 67c1 12bb 5e40
00000010: 6ed9 d5bf cbb1 a6bf bd61 15c1 18f2 de3f
00000020: 7750 6c41 b1ea 88c1 c4cb fac0 0ca6 4240
00000030: ca43 9240 86c3 af3f 38ae cec0 69cb 2940
00000040: 456e 71be

encoder.shared_layers.0.bn.running_var f4 [17]
559.5657 997.8318 1222.659 836.42975 131.25417 135.18614 518.08246 385.42102
2035.4213 840.2509 194.27632 294.9191 221.11977 76.119705 109.21765 291.30972
183.71788
00000000: 34e4 0b44 3c75 7944 17d5 9844 811b 5144
00000010: 1141 0343 a72f 0743 4785 0144 e4b5 c043
00000020: 7b6d fe44 0f10 5244 bd46 4243 a575 9343
00000030: a91e 5d43 4a3d 9842 706f da42 a5a7 9143
00000040: c7b7 3743

encoder.shared_layers.1.fc.weight f4 [34, 17]
2.6812856 1.5108281 2.9531918 -1.4630667 -0.5350007 0.8742378 1.0129762 2.6078372
-1.7044061 -0.3764368 1.6482979 -2.4653118 -1.2334933 0.49745262 -0.4530364 0.75765026
0.4273766 1.5819771 2.9393375 -4.4126854 -3.3607345 -1.4367378 -2.0988622 -3.4897487
-2.566369 4.4985847 -2.5850618 2.482694 1.750846 -2.0347495 -3.4364114 -2.6600695
0.5569814 -1.4144866 -2.29467 -3.3873522 2.3421605 4.2758203 -1.2351489 -3.1861444
1.7512143 -0.59125733 -1.7816486 4.302615 -2.41773 0.8077943 1.774566 4.1359415
1.3326344 -3.6329458 -0.61508286 -0.9217984 0.060733184 -2.5263643 0.64324594 0.02473271
-2.9462485 1.0423719 -1.5061102 0.33889017 1.7922829 -0.6528412 1.1671834 -2.0902452
1.7586871 -0.40159044 -1.1188402 -0.13506463 -2.7900617 -1.4732765 3.559609 2.8712656
1.8280615 -3.8291998 3.6658494 1.8607607 -3.0981357 4.062204 -3.5013244 3.102976
-2.3376317 3.6117854 -1.4113557 -3.700118 1.4992858 1.8101512 1.8747023 -0.6507801
-2.4621813 -3.3767624 1.4410884 -4.0364046 -0.3285543 0.2293162 -3.732169 1.8780072
1.4526794 0.294062 -3.0114346 -0.9380584 1.9511708 0.101881504 0.76305836 -1.1893756
3.2433856 -3.276242 -2.6969278 2.1329567 -2.3673635 -2.5380635 1.929399 1.4331852
-0.56843597 -2.5675 3.912121 -0.55174637 3.4938715 -3.2669241 1.293214 3.5815399
3.019347 3.5860057 -2.5833046 -2.607014 3.0224676 2.6663 1.7512972 -2.477351
1.5610298 -2.3172157 -3.513204 1.2674711 -3.9193568 2.075289 2.4554515 -3.3910956
-1.0859406 1.9720935 -4.021042 -2.97596 -2.031604 -3.1947858 -1.2332135 -2.0650642
2.4914982 -3.2387452 -1.0988116 3.5639925 -2.3702223 1.0146345 -2.6336958 -2.2289033
2.1605299 2.5365276 -3.8035762 1.9996005 0.28293186 3.7349353 1.7965388 1.967517
2.1268988 -2.7072082 0.89090765 0.48275244 2.627854 3.2876823 1.3716754 3.07797
3.9143622 3.831523 -1.9902292 3.2169542 -0.441411 0.25069356 -3.9818642 -3.6826732
2.6613739 -3.7675908 -2.875317 4.4997015 -3.9640415 0.27872863 0.60797364 1.4461274
-2.4065619 -3.9824615 -3.4109452 3.439386 -2.640845 1.96472 0.24094355 -1.6306161
1.1976626 -0.11916032 0.94436425 -2.3872328 3.0686817 1.1120111 2.8190036 0.1352936
0.82186717 1.5810105 -1.5450941 -1.8280277 1.7266926 -0.951658 1.5861099 1.7393665
-2.434106 0.0017907999 1.8075643 -1.1966275 -0.19220014 0.75914925 3.006262 -0.36757007
1.5062616 -1.8735739 1.8693209 -2.6885834 -1.4513135 -2.8271356 -3.3175037 -1.3154842
2.6711094 4.28371 -0.75838864 2.5022745 3.2602904 -2.3997505 -3.957596 -2.5070977
4.0396953 -4.02787 0.95429116 -0.13539606 3.450425 4.2653427 -1.3439703 -2.908781
1.9996876 -1.5143737 0.7047283 0.6737222 -0.41305292 -0.48144448 3.383589 -1.7698349
-2.5298996 -0.90000933 2.6044075 -3.0390544 1.3370528 1.8153887 1.5792326 -0.22258994
00000000: 2f9a 2b40 d162 c13f 1801 3d40 c545 bbbf
00000010: cef5 08bf 0cce 5f3f 34a9 813f cee6 2640
00000020: fb29 dabf 53bc c0be 6dfb d23f abc7 1dc0
00000030: 1ce3 9dbf 1cb2 fe3e 63f4 e7be 5ef5 413f
00000040: 1bd1 da3e 3a7e ca3f 1b1e 3c40 b834 8dc0
00000050: 4616 57c0 06e7 b7bf c253 06c0 0b58 5fc0
00000060: 643f 24c0 68f4 8f40 a771 25c0 75e4 1e40
00000070: b91b e03f 5639 02c0 2aee 5bc0 943e 2ac0
00000080: 5596 0e3f e60d b5bf e0db 12c0 61ca 58c0
00000090: f5e5 1540 85d3 8840 5c19 9ebf cae9 4bc0
000000a0: ca27 e03f a45c 17bf 100d e4bf 06af 8940
000000b0: 17bc 1ac0 9bcb 4e3f fb24 e33f a259 8440
000000c0: c493 aa3f 2f82 68c0 1276 1dbf fbfa 6bbf
000000d0: 5cc3 783d f4af 21c0 c4ab 243f 419c ca3c
000000e0: 568f 3cc0 716c 853f 38c8 c0bf 0383 ad3e
000000f0: 8769 e53f 9a20 27bf 4466 953f 94c6 05c0
00000100: a91c e13f 439d cdbe 2836 8fbf 624e 0abe
00000110: 5f90 32c0 5394 bcbf a2d0 6340 d1c2 3740
00000120: ebfd e93f 9c11 75c0 479d 6a40 682d ee3f
00000130: db47 46c0 93fd 8140 b315 60c0 2997 4640
00000140: c29b 15c0 7e27 6740 4ea7 b4bf bcce 6cc0
00000150: 99e8 bf3f 09b3 e73f 3ff6 ef3f 8699 26bf
00000160: 6194 1dc0 e01c 58c0 9675 b83f 3a2a 81c0
00000170: 4538 a8be ded1 6a3e dbdb 6ec0 8a62 f03f
00000180: 66f1 b93f 4b8f 963e 58bb 40c0 9824 70bf
00000190: f7bf f93f 40a7 d03d cb57 433f 763d 98bf
000001a0: a193 4f40 f3ad 51c0 779a 2cc0 5d82 0840
000001b0: e282 17c0 a26f 22c0 8cf6 f63f 9d72 b73f
000001c0: 0585 11bf ec51 24c0 3160 7a40 403f 0dbf
000001d0: 979b 5f40 4915 51c0 0988 a53f f337 6540
000001e0: fb3c 4140 1e81 6540 dd54 25c0 51d9 26c0
000001f0: 1c70 4140 a9a4 2a40 822a e03f eb8c 1ec0
00000200: d3cf c73f 434d 14c0 56d8 60c0 7e3c a23f
00000210: bed6 7ac0 89d1 0440 1e26 1d40 b607 59c0
00000220: 1a00 8bbf 8f6d fc3f 60ac 80c0 2176 3ec0
00000230: cd05 02c0 5f77 4cc0 f1d9 9dbf 032a 04c0
00000240: b574 1f40 9a47 4fc0 dca5 8cbf 7418 6440
00000250: b9b1 17c0 8bdf 813f 798e 28c0 5aa6 0ec0
00000260: 1f46 0a40 7856 2240 cb6d 73c0 e9f2 ff3f
00000270: 72dc 903e 2e09 6f40 fcf4 e53f 99d7 fb3f
00000280: 1c1f 0840 e642 2dc0 8612 643f 542b f73e
00000290: c32e 2840 6369 5240 0f93 af3f 76fd 4440
000002a0: e984 7a40 ac37 7540 d5bf febf 94e2 4d40
000002b0: 9f00 e2be e85a 803e ddd6 7ec0 ebb0 6bc0
000002c0: f353 2a40 3520 71c0 3205 38c0 8efd 8f40
000002d0: dbb2 7dc0 85b5 8e3e 29a4 1b3f b41a b93f
000002e0: 1c05 1ac0 a6e0 7ec0 ed4c 5ac0 e61e 5c40
000002f0: 9b03 29c0 f27b fb3f e8b9 763e 07b8 d0bf
00000300: 024d 993f 530a f4bd dbc1 713f 6cc8 18c0
00000310: 4865 4440 6156 8e3f 8e6a 3440 688a 0a3e
00000320: e365 523f 8d5e ca3f a5c5 c5bf d0fc e9bf
00000330: 4304 dd3f dc9f 73bf a605 cb3f 90a3 de3f
00000340: 65c8 1bc0 46b9 ea3a 445e e73f 172b 99bf
00000350: 1dd0 44be 9b57 423f 9966 4040 2532 bcbe
00000360: 2ecd c03f 45d1 efbf e845 ef3f c011 2cc0
00000370: a4c4 b9bf caef 34c0 fb51 54c0 c961 a8bf
00000380: 75f3 2a40 2714 8940 c225 42bf 4425 2040
00000390: 99a8 5040 8395 19c0 4149 7dc0 4a74 20c0
000003a0: 2f45 8140 50e4 80c0 6d4c 743f 44a5 0abe
000003b0: c3d3 5c40 b07d 8840 3807 acbf 7829 3ac0
000003c0: c3f5 ff3f ffd6 c1bf 1369 343f 0f79 2c3f
000003d0: ac7b d3be e47f f6be b98c 5840 f389 e2bf
000003e0: e0e9 21c0 0367 66bf 9dae 2640 de7f 42c0
000003f0: 8c24 ab3f a85e e83f 4b24 ca3f 9eee 63be

encoder.shared_layers.1.fc.bias f4 [34]
1.9389043 0.32725072 1.2676888 0.81488425 -2.2709033 2.1018503 2.1156075 2.323225
0.7548813 -0.07733159 2.677985 -1.4022632 0.22501613 -1.621002 -0.6741708 1.3757136
-3.3034256 3.4573367 1.3784512 0.03327318 0.5897481 3.3331728 2.3324986 1.1252973
2.4855614 -0.74254996 0.7919959 0.7447376 1.9944781 0.25087357 1.4030756 0.045571834
-0.14084883 -0.56898
00000000: 042e f83f 688d a73e a043 a23f 419c 503f
00000010: 7b56 11c0 b784 0640 1d66 0740 b8af 1440
00000020: e73f 413f 0660 9ebd 1b64 2b40 5c7d b3bf
00000030: a16a 663e fe7c cfbf 7596 2cbf 6217 b03f
00000040: 536b 53c0 0145 5d40 1771 b03f 7549 083d
00000050: bbf9 163f b452 5540 a847 1540 be09 903f
00000060: 7013 1f40 c117 3ebf 3ec0 4a3f 20a7 3e3f
00000070: 0f4b ff3f 8072 803e fb97 b33f 88a9 3a3d
00000080: ad3a 10be aca8 11bf

encoder.shared_layers.1.bn.weight f4 [17]
0.6921156 1.1256164 0.2104961 1.4262973 0.429524 0.9290784 0.88030165 0.4095496
2.4738793 0.7541271 0.39156434 0.8929429 1.4502617 0.19525596 1.0078788 0.22468224
0.07220079
00000000: 7d2e 313f 3314 903f 4a8c 573e e990 b63f
00000010: 92ea db3e 15d8 6d3f 735b 613f 7cb0 d13e
00000020: 0a54 1e40 790e 413f 1f7b c83e e897 643f
00000030: 2da2 b93f 2ef1 473e 2c02 813f 1a13 663e
00000040: 02de 933d

encoder.shared_layers.1.bn.bias f4 [17]
0.4484165 0.05083619 0.8587961 -0.5739936 0.41456687 -0.44102976 0.6693516 1.802367
-0.9712527 -0.9701932 0.48042187 0.92963904 0.8981107 0.43839064 0.266739 0.08247493
0.05437662
00000000: d996 e53e 9c39 503d 10da 5b3f 3ff1 12bf
00000010: 1c42 d43e a7ce e1be a05a 2b3f f6b3 e63f
00000020: 04a4 78bf 955e 78bf dbf9 f53e d3fc 6d3f
00000030: 95ea 653f bd74 e03e 0492 883e 9ee8 a83d
00000040: 05ba 5e3d

encoder.shared_layers.1.bn.running_mean f4 [17]
8.773503 13.387475 -5.285904 -3.9073513 -2.9249876 7.6898885 1.0533465 4.4471793
11.734903 17.613476 3.33128 5.4248853 -5.5184875 5.328002 -4.939115 3.3648455
-6.1445627
00000000: 4560 0c41 1933 5641 2026 a9c0 0b12 7ac0
00000010: ff32 3bc0 9113 f640 0fd4 863f 4b4f 8e40
00000020: 2ac2 3b41 66e8 8c41 b133 5540 a998 ad40
00000030: 7397 b0c0 fe7e aa40 3b0d 9ec0 a159 5740
00000040: 42a0 c4c0

encoder.shared_layers.1.bn.running_var f4 [17]
195.54411 1779.93 618.6783 92.38296 1142.7584 428.61914 154.68858 545.05566
1116.1537 548.393 371.1766 250.8895 83.338875 729.2712 134.99168 395.0542
299.30704
00000000: 4b8b 4343 c37d de44 69ab 1a44 13c4 b842
00000010: 45d8 8e44 404f d643 47b0 1a43 9043 0844
00000020: eb84 8b44 2719 0944 9b96 b943 b6e3 7a43
00000030: 81ad a642 5b51 3644 dffd 0643 f086 c543
00000040: 4da7 9543

encoder.initial_transform.blocks.0.fc.weight f4 [34, 17]
1.7953221 -0.37919134 2.2237153 2.7672458 2.9928517 1.7206428 2.4732213 3.3988636
-0.78256017 -0.15731274 -0.49518478 1.5472579 4.1961503 -3.911553 -1.2829704 -3.916334
0.43644917 0.0073314654 1.3149091 -2.2003086 -3.4009218 -2.282048 -1.5217941 2.1485615
1.8396935 0.18218236 1.6701713 1.8755589 0.9916343 -1.8641293 2.5180812 0.14810938
3.3043196 -2.021303 -1.132913 -1.3088545 2.0061712 2.9437802 1.408898 0.02585375
-3.6191547 -3.6287706 1.3396146 -0.1811275 0.9493534 0.3766161 -3.6418414 -3.3446767
-2.0333722 -2.7171452 1.1257862 1.7714007 3.6959963 2.670932 0.25048974 -2.393179
-3.7748938 3.4878337 1.456482 2.7579136 1.3806589 -0.24545293 3.3573925 -1.4094669
2.4344013 -0.07042619 -1.4679626 -1.6368979 -0.9783756 0.51377654 -4.2670455 -4.065864
0.5448513 -0.45826593 -2.6158297 2.1987207 -1.2485429 -2.7677002 -2.9979134 -2.54372
1.2812684 1.8778867 0.66457003 -0.579032 1.0401646 -1.2376319 2.8281844 -0.6237109
-1.5172994 -0.80953884 -1.1226138 -1.1481279 1.8860782 -1.0738671 3.4763668 3.270687
-2.7754774 -1.6885442 -1.8215047 -2.25765 -3.7934506 -1.5378268 -2.9634798 0.48618907
3.329692 3.107822 -0.4236983 -3.7502012 3.6513598 0.76132256 -1.6274245 -1.03988
1.1646992 2.8033886 1.4960176 2.8290458 3.8486803 3.9312654 -1.0229998 2.880787
-3.232337 3.6271877 3.7726612 -0.99911857 4.1412497 -3.972461 -4.1908274 1.9160216
1.3476405 2.437168 -3.5862827 1.8757719 2.9281633 -4.348622 1.1715637 -4.646581
1.8979572 0.26549193 -0.5767977 -1.2080545 -3.169294 1.4193761 2.9465747 2.4414666
3.620693 3.6650455 2.681612 3.0251045 -3.070769 1.3717586 3.802259 2.0556645
0.70569396 3.4024808 -0.59127676 1.2981077 0.43117952 0.53606933 -2.2378025 -1.7520846
-1.0295773 2.6946502 2.712358 -4.05349 1.1958207 -1.1874852 2.8588543 2.6600451
1.2188156 1.3253455 -2.2795722 -4.56417 -2.6297119 -3.0225868 -3.9748402 -2.1271205
3.7534792 4.00814 1.6810883 -0.8813296 3.101244 -3.4399822 3.1897686 4.279216
-2.5680907 -2.3923905 -2.05984 1.4981765 -0.9805403 2.0038402 2.9763784 1.9615675
-0.036387816 -1.0433469 -0.79292184 -0.98992085 -1.5044547 -3.907951 1.9731305 2.6454012
2.8396869 3.1992617 -2.493008 -1.3329343 -4.104886 -3.559404 3.1129434 3.3076742
-3.069238 0.18982954 1.0101235 0.2710499 -0.116521336 3.5918772 2.6573727 -2.6826355
-1.2998685 -1.8097537 4.052108 2.3665934 2.6754255 1.8847208 1.5440999 1.355116
1.2750368 4.0548053 -0.08698534 2.138318 0.6589325 2.2453895 0.77623695 0.8736898
-2.0325506 -1.9021807 1.1199855 3.0315087 1.7760416 2.0608926 -3.378064 -1.5863239
-4.0767837 -4.2977095 -2.650342 -3.5821204 3.7268088 3.6836054 3.7975185 4.1122026
4.2827744 -4.024376 -4.0678315 4.141406 -4.5743628 4.3478737 0.04522002 -2.1381
00000000: 1dcd e53f 5e25 c2be 5a51 0e40 8e1a 3140
00000010: e28a 3f40 063e dc3f 4249 1e40 fb86 5940
00000020: dd55 48bf 9716 21be dc88 fdbe 8c0c c63f
00000030: dd46 8640 e256 7ac0 6038 a4bf 37a5 7ac0
00000040: 4476 df3e ca3c f03b f14e a83f dbd1 0cc0
00000050: b4a8 59c0 130d 12c0 26ca c2bf 0882 0940
00000060: 147b eb3f 038e 3a3e 2cc8 d53f 5012 f03f
00000070: bfdb 7d3f ca9b eebf 3e28 2140 fca9 173e
00000080: f979 5340 075d 01c0 4b03 91bf 8b88 a7bf
00000090: 1c65 0040 e566 3c40 c556 b43f 3ecb d33c
000000a0: 3ba0 67c0 c73d 68c0 7e78 ab3f 7d79 39be
000000b0: d308 733f d3d3 c03e ee13 69c0 2f0f 56c0
000000c0: c522 02c0 b5e5 2dc0 c319 903f 42bd e23f
000000d0: 348b 6c40 8df0 2a40 3140 803e d829 19c0
000000e0: dc97 71c0 ab38 5f40 016e ba3f a881 3040
000000f0: 6eb9 b03f 0358 7bbe 85df 5640 6969 b4bf
00000100: 3bcd 1b40 9b3b 90bd 33e6 bbbf df85 d1bf
00000110: d376 7abf dc86 033f a38b 88c0 8f1b 82c0
00000120: 607b 0b3f d5a1 eabe c169 27c0 d7b7 0c40
00000130: 41d0 9fbf 0022 31c0 d0dd 3fc0 4fcc 22c0
00000140: 9a00 a43f 975e f03f 4321 2a3f 713b 14bf
00000150: 1d24 853f b96a 9ebf f900 3540 84ab 1fbf
00000160: de36 c2bf f03d 4fbf cfb1 8fbf dbf5 92bf
00000170: 036b f13f 7a74 89bf cb7c 5e40 f052 5140
00000180: 6ca1 31c0 3722 d8bf 1127 e9bf 567d 10c0
00000190: e5c7 72c0 82d7 c4bf a7a9 3dc0 c6ed f83e
000001a0: ac19 5540 8ee6 4640 fcee d8be 4c03 70c0
000001b0: e1af 6940 09e6 423f 724f d0bf ca1a 85bf
000001c0: dd14 953f b86a 3340 817d bf3f 160f 3540
000001d0: c750 7640 da99 7b40 a8f1 82bf d05e 3840
000001e0: 9cde 4ec0 d823 6840 4873 7140 3cc6 7fbf
000001f0: 1e85 8440 cd3c 7ec0 421b 86c0 3240 f53f
00000200: 7c7f ac3f 8ffa 1b40 a885 65c0 4b19 f03f
00000210: 0767 3b40 e927 8bc0 cdf5 953f cbb0 94c0
00000220: 43f0 f23f 8fee 873e 04a9 13bf 88a1 9abf
00000230: b7d5 4ac0 1eae b53f ae94 3c40 fd40 1c40
00000240: 6fb9 6740 1b90 6a40 889f 2b40 509b 4140
00000250: 7b87 44c0 c995 af3f 3658 7340 0290 0340
00000260: 5ca8 343f 3fc2 5940 ea5d 17bf 6528 a63f
00000270: 90c3 dc3e d73b 093f 2838 0fc0 4f44 e0bf
00000280: 30c9 83bf 2675 2c40 4697 2d40 31b6 81c0
00000290: a710 993f 84ff 97bf 78f7 3640 2e3e 2a40
000002a0: 2602 9c3f eca4 a93f 83e4 11c0 ae0d 92c0
000002b0: 334d 28c0 1072 41c0 c863 7ec0 be22 08c0
000002c0: 0139 7040 af42 8040 e72d d73f d19e 61bf
000002d0: c87a 4640 ab28 5cc0 2b25 4c40 56ef 8840
000002e0: 995b 24c0 ed1c 19c0 6bd4 03c0 3fc4 bf3f
000002f0: b004 7bbf eb3e 0040 fc7c 3e40 a514 fb3f
00000300: 640b 15bd 648c 85bf edfc 4abf 746b 7dbf
00000310: f991 c0bf df1b 7ac0 8a8f fc3f 414e 2940
00000320: 6ebd 3540 b4c0 4c40 718d 1fc0 979d aabf
00000330: 3a5b 83c0 46cd 63c0 773a 4740 efb0 5340
00000340: 656e 44c0 ad62 423e ba4b 813f 0dc7 8a3e
00000350: bda2 eebd 51e1 6540 6512 2a40 4db0 2bc0
00000360: 1762 a6bf 02a6 e7bf deaa 8140 4476 1740
00000370: 2c3a 2b40 883e f13f 11a5 c53f 7174 ad3f
00000380: 6834 a33f f7c0 8140 5f25 b2bd 34da 0840
00000390: cdaf 283f 76b4 0f40 77b7 463f 22aa 5f3f
000003a0: 4f15 02c0 a87a f3bf af5b 8f3f 3d04 4240
000003b0: 5555 e33f aae5 0340 3332 58c0 a90c cbbf
000003c0: 0375 82c0 d686 89c0 349f 29c0 7641 65c0
000003d0: 0984 6e40 31c0 6b40 8b0a 7340 2a97 8340
000003e0: 7d0c 8940 b0c7 80c0 ad2b 82c0 6686 8440
000003f0: 2e61 92c0 c821 8b40 a138 393d a1d6 08c0

encoder.initial_transform.blocks.0.fc.bias f4 [34]
2.0160515 -1.16965 -0.09526355 0.65406835 2.3172088 2.2495377 1.0699875 2.9535596
2.9885728 1.5106779 -2.5156622 1.1101375 -1.1977369 0.171389 1.0042243 -0.061783325
-0.7118139 -0.31983683 1.7047546 -2.0167205 0.4050416 0.97038525 2.1785939 -0.006141599
-1.1971537 0.10275938 1.0335442 0.015521669 2.060547 -0.55403435 -1.4883667 -1.8945998
-2.2976804 -0.0030991002
00000000: fd06 0140 17b7 95bf 8919 c3bd 0671 273f
00000010: 264d 1440 6df8 0f40 5af5 883f 1f07 3d40
00000020: c744 3f40 e55d c13f 9c00 21c0 fc18 8e3f
00000030: 714f 99bf 9980 2f3e 6c8a 803f 8310 7dbd
00000040: 7039 36bf a7c1 a3be 6635 da3f f311 01c0
00000050: 9d61 cf3e 2b6b 783f 156e 0b40 773f c9bb
00000060: 553c 99bf 8373 d23d 2d4b 843f 994e 7e3c
00000070: 01e0 0340 32d5 0dbf cd82 bebf 3f82 f2bf
00000080: 320d 13c0 461a 4bbb

encoder.initial_transform.blocks.0.bn.weight f4 [17]
2.1106606 1.5562198 -0.101660624 0.28053075 0.9381786 0.60597557 2.2971408 0.2998675
1.5999936 0.5804951 1.1463468 1.9077997 0.7805828 2.4237638 0.63731074 2.4498932
1.5956606
00000000: 1015 0740 3632 c73f 7233 d0bd baa1 8f3e
00000010: 792c 703f 3721 1b3f 5b04 1340 3c88 993e
00000020: 97cc cc3f 549b 143f 7ebb 923f c832 f43f
00000030: 46d4 473f f21e 1b40 cc26 233f 0dcb 1c40
00000040: 9b3e cc3f

encoder.initial_transform.blocks.0.bn.bias f4 [17]
-0.107629895 0.17291655 -0.32224363 -0.27082697 0.5373541 0.30833274 -1.4159222 -0.6631471
-0.17890444 0.118103184 0.465018 -0.4778642 0.009894695 -0.45363435 0.52265954 0.26277673
-0.14885809
00000000: 106d dcbd 0911 313e 1efd a4be d5a9 8abe
00000010: 0a90 093f cadd 9d3e f03c b5bf 02c4 29bf
00000020: ba32 37be 15e0 f13d d716 ee3e 9eaa f4be
00000030: 5c1d 223c c342 e8be 04cd 053f ac8a 863e
00000040: 416e 18be

encoder.initial_transform.blocks.0.bn.running_mean f4 [17]
1.874345 -13.471121 8.005191 -3.2579515 6.8569307 6.973591 -3.664044 6.352748
1.213946 5.502744 -3.8190827 11.334531 -5.6971292 -2.9755142 1.09588 7.353871
-9.68464
00000000: 89ea ef3f b689 57c1 4315 0041 4782 50c0
00000010: fa6b db40 a827 df40 b27f 6ac0 b649 cb40
00000020: 9562 9b3f 7b16 b040 da6b 74c0 3d5a 3541
00000030: e24e b6c0 d36e 3ec0 cc45 8c3f e952 eb40
00000040: 49f4 1ac1

encoder.initial_transform.blocks.0.bn.running_var f4 [17]
609.036 289.2255 368.93164 189.0445 305.16672 118.82047 357.6544 663.59204
581.7455 241.4738 1573.3416 294.11313 232.1473 204.23167 1647.0549 273.19064
115.300545
00000000: 4e42 1844 dd9c 9043 4077 b843 640b 3d43
00000010: 5795 9843 15a4 ed42 c3d3 b243 e4e5 2544
00000020: b66f 1144 4b79 7143 eeaa c444 7b0e 9343
00000030: b525 6843 4f3b 4c43 c2e1 cd44 6798 8843
00000040: e199 e642

encoder.initial_transform.blocks.1.fc.weight f4 [34, 17]
1.4542676 2.193542 4.2221427 3.407611 2.154472 -2.3236973 2.5695157 -1.464761
-2.2360346 0.19055672 3.1404665 -3.8216217 3.2463667 3.672638 -3.9365335 1.4380565
-3.4176435 -2.052956 3.6550145 1.3564719 -1.093159 -0.40450817 0.089256875 1.5158293
1.4030381 0.7674117 0.17617217 -0.06638437 -1.6623762 -1.421141 -1.1340786 0.34214774
-2.4202714 -2.7348027 2.926776 1.6088151 4.0264034 4.062329 3.3928514 -2.5609636
2.1125667 -1.6667765 -0.19087291 0.79271114 3.625063 -2.02899 1.6531342 3.132091
-3.7555635 -0.18191344 0.2194874 -0.7199697 2.7189746 -3.4767106 -3.3049054 -1.6934536
-0.25189662 4.2515655 1.0541751 2.0068219 -1.5102751 3.7339144 0.46261835 0.08231599
-3.3848143 -3.1227622 -3.609932 -3.6940053 -1.6294733 0.024184829 -0.894089 -3.4576535
0.27375975 -1.1079327 -1.0529314 0.37685245 -3.2607 -4.3151402 0.31423056 0.4923409
-0.19769897 -0.77793056 2.0845828 -1.2441154 0.17311415 1.2943915 3.0914743 -0.3417323
-3.088764 3.4078457 -1.5354325 -2.6726074 -1.4308176 -3.245665 0.50336254 0.88221383
-2.1968877 -2.597836 -0.34973457 0.3154866 1.3749465 1.0299819 -2.5398593 -0.8312044
2.7029035 0.77033794 0.37819645 -0.20050061 2.876331 -1.9146836 -2.0798545 -3.1964238
-0.19067384 -0.111088455 2.1283197 -0.04472222 -0.523223 -0.9235821 -1.3923094 2.7384696
1.6730258 1.5618498 3.7521346 -2.08637 -2.1557407 1.4453106 -3.8138556 -2.755225
-0.6143274 1.321786 0.04527647 0.7848966 2.3120708 -3.455224 1.4100971 -0.6613563
1.8455856 -0.7420291 0.162513 1.3630025 -3.3305807 3.5069005 -1.6293453 2.8998668
2.5172489 2.9660506 2.7320971 -0.57350284 -0.43369526 -1.5281094 -1.5448176 -0.9777174
1.8408734 3.9035354 -0.3745829 2.054925 1.3336817 3.8522513 -2.7607334 2.4871464
-2.9268098 1.8545275 0.2586243 -4.0381427 3.6996355 -3.0470834 3.6198668 3.0976229
-0.763922 -1.15086 3.3510466 0.03125762 -0.8819446 -2.2898972 1.3657311 1.1540234
-2.911337 1.9039947 -1.1224533 2.8353417 -4.0003366 -0.6755436 -2.100627 -0.42730576
-2.0983226 0.6430505 -2.0878131 2.054157 -1.1019433 -1.2966567 -0.47882143 2.0589075
-3.5633032 -3.1050007 -3.1522229 -0.7338653 1.9556464 -3.3247197 3.6915896 -1.3463436
0.27802625 2.6484292 0.6527716 2.2803807 -1.3061306 -2.2341588 2.1757197 0.5460092
-0.740397 2.075231 -1.0580473 1.9057943 -0.053907134 -2.872551 3.8849354 -0.688959
2.2840967 -1.754652 -1.6719894 -2.3682148 0.6917266 1.8471324 -2.1148622 -0.14318699
1.6305926 -1.0786573 -2.7173622 0.89779973 -0.871589 0.41927347 -2.2167537 -3.4451628
3.6358984 0.5461742 1.2862889 1.4146891 2.0325952 -1.0861341 -0.41121358 -2.3405385
4.207946 2.100058 0.9815781 0.5875235 -0.99597335 -0.7402889 -0.025158219 -2.2207263
3.310688 -2.8348327 2.797018 -0.5520305 -3.0866241 1.8047811 -1.5548828 2.6824975
00000000: 7125 ba3f fe62 0c40 cb1b 8740 4c16 5a40
00000010: dfe2 0940 75b7 14c0 f272 2440 4a7d bbbf
00000020: 311b 0fc0 4d21 433e 67fd 4840 7395 74c0
00000030: 79c4 4f40 800c 6b40 2af0 7bc0 3c12 b83f
00000040: acba 5ac0 a263 03c0 c2eb 6940 dfa0 ad3f
00000050: a2ec 8bbf b21b cfbe 4fcc b63d b206 c23f
00000060: c196 b33f 1875 443f 7a66 343e 87f4 87bd
00000070: bec8 d4bf f3e7 b5bf 7d29 91bf fd2d af3e
00000080: bae5 1ac0 0207 2fc0 4c50 3b40 a7ed cd3f
00000090: 4cd8 8040 99fe 8140 7a24 5940 d4e6 23c0
000000a0: 4b34 0740 ef58 d5bf 3074 43be 1eef 4a3f
000000b0: 0801 6840 f9da 01c0 e799 d33f 2e74 4840
000000c0: 275b 70c0 8447 3abe 4ec1 603e ef4f 38bf
000000d0: ae03 2e40 6d82 5ec0 9283 53c0 16c3 d8bf
000000e0: 98f8 80be d30c 8840 36ef 863f c56f 0040
000000f0: b250 c1bf 74f8 6e40 50dc ec3e 4995 a83d
00000100: cca0 58c0 56db 47c0 2009 67c0 956a 6cc0
00000110: 9592 d0bf 431f c63c 04e3 64bf 324a 5dc0
00000120: 3d2a 8c3e bdd0 8dbf 75c6 86bf cef2 c03e
00000130: 4faf 50c0 a115 8ac0 d4e2 a03e 1b14 fc3e
00000140: 9971 4abe 7526 47bf ce69 0540 2c3f 9fbf
00000150: d644 313e 9fae a53f b7da 4540 89f7 aebe
00000160: 4fae 45c0 251a 5a40 0d89 c4bf 000c 2bc0
00000170: 0825 b7bf fab8 4fc0 5edc 003f c4d8 613f
00000180: cf99 0cc0 f242 26c0 6910 b3be 7687 a13e
00000190: 3ffe af3f 72d6 833f 0e8d 22c0 d0c9 54bf
000001a0: 5ffc 2c40 de34 453f f7a2 c13e 0850 4dbe
000001b0: cf15 3840 5a14 f5bf 561c 05c0 3592 4cc0
000001c0: 0140 43be 5882 e3bd 6436 0840 a62e 37bd
000001d0: f1f1 05bf e06f 6cbf 3237 b2bf 1643 2f40
000001e0: b625 d63f b2ea c73f f922 7040 1687 05c0
000001f0: a8f7 09c0 f0ff b83f 3616 74c0 9b55 30c0
00000200: 8f44 1dbf 4930 a93f d273 393d fcee 483f
00000210: f8f8 1340 6422 5dc0 107e b43f a54e 29bf
00000220: 263c ec3f 9ef5 3dbf cf69 263e de76 ae3f
00000230: 3c28 55c0 0f71 6040 638e d0bf 6b97 3940
00000240: 9b1a 2140 c6d3 3d40 aeda 2e40 15d1 12bf
00000250: 4e0d debe 1799 c3bf 95bc c5bf b04b 7abf
00000260: bda1 eb3f 86d3 7940 54c9 bfbe e483 0340
00000270: 15b6 aa3f 498b 7640 dbaf 30c0 682d 1f40
00000280: da50 3bc0 2861 ed3f 676a 843e 7738 81c0
00000290: d4c6 6c40 6a03 43c0 e6ab 6740 743f 4640
000002a0: 6490 43bf 614f 93bf 8c77 5640 fd07 003d
000002b0: 1fc7 61bf ad8d 12c0 47d0 ae3f 0ab7 933f
000002c0: 5853 3ac0 19b6 f33f 8dac 8fbf 3d76 3540
000002d0: c202 80c0 6df0 2cbf ac70 06c0 d2c7 dabe
000002e0: eb4a 06c0 f59e 243f bb9e 05c0 4f77 0340
000002f0: 7a0c 8dbf d9f8 a5bf 1528 f5be 24c5 0340
00000300: 290d 64c0 55b8 46c0 05be 49c0 99de 3bbf
00000310: 9f52 fa3f 35c8 54c0 0143 6c40 fd54 acbf
00000320: 7559 8e3e dd7f 2940 0a1c 273f c2f1 1140
00000330: 4a2f a7bf 75fc 0ec0 fe3e 0b40 42c7 0b3f
00000340: a88a 3dbf 96d0 0440 186e 87bf 11f1 f33f
00000350: bacd 5cbd e0d7 37c0 c8a2 7840 9e5f 30bf
00000360: a42e 1240 7098 e0bf c003 d6bf d590 17c0
00000370: ff14 313f d66e ec3f e759 07c0 9c9f 12be
00000380: 42b7 d03f 7111 8abf 43e9 2dc0 34d6 653f
00000390: 7520 5fbf 03ab d63e 4bdf 0dc0 8c7d 5cc0
000003a0: 8fb2 6840 13d2 0b3f 1da5 a43f 8814 b53f
000003b0: 0a16 0240 7106 8bbf 968a d2be 62cb 15c0
000003c0: 7ea7 8640 5a67 0640 b448 7b3f f167 163f
000003d0: 1cf8 7ebf 9383 3dbf 9c18 cebc 6120 0ec0
000003e0: 50e2 5340 e66d 35c0 5802 3340 df51 0dbf
000003f0: 408b 45c0 1103 e73f 6606 c7bf 0aae 2b40

encoder.initial_transform.blocks.1.fc.bias f4 [34]
-1.1836787 -0.32479772 0.21943356 0.49773526 0.46369392 3.0320199 0.11183661 -0.41451362
0.36601332 -1.3982279 -1.4673952 2.3914669 1.806519 0.30015475 3.1772313 1.5162325
-1.9269083 -0.3844762 0.90584433 0.097257115 -3.3035772 3.0598335 -1.7088228 -2.1309702
2.8620417 -1.0264473 -0.9451057 3.026288 0.26916096 1.6176075 0.092884704 3.1514556
-1.0477954 -0.030416382
00000000: c982 97bf e34b a6be 31b3 603e 28d7 fe3e
00000010: 4a69 ed3e 9d0c 4240 980a e53d 213b d4be
00000020: 1966 bb3e 22f9 b2bf 9bd3 bbbf cb0d 1940
00000030: 043c e73f e2ad 993e c257 4b40 e813 c23f
00000040: eea4 f6bf 11da c4be 6ae5 673f bd2e c73d
00000050: cf6d 53c0 50d4 4340 b5ba dabf d161 08c0
00000060: b12b 3740 a062 83bf 72f2 71bf b4ae 4140
00000070: 77cf 893e c30d cf3f 563a be3d 73b1 4940
00000080: 291e 86bf c72b f9bc

encoder.initial_transform.blocks.1.bn.weight f4 [17]
0.45751917 2.3313265 1.5908387 1.4879206 0.9379814 1.5974133 0.92757666 1.9648519
2.0355072 0.98363155 1.0511843 1.2211702 0.6452142 0.5004492 0.8627144 1.5565367
0.839741
00000000: f43f ea3e 7434 1540 9aa0 cb3f 2f74 be3f
00000010: 8d1f 703f 0a78 cc3f aa75 6d3f 4480 fb3f
00000020: c045 0240 47cf 7b3f 358d 863f 4e4f 9c3f
00000030: c22c 253f 701d 003f dada 5c3f 983c c73f
00000040: 44f9 563f

encoder.initial_transform.blocks.1.bn.bias f4 [17]
-0.2594547 0.6093553 -0.1841909 0.7538438 -0.4097482 0.72973025 -0.42622823 0.28152373
-0.26351807 -0.023466496 0.87013274 -0.12037034 -0.06698183 -0.27806967 -0.23145767 -0.64341825
-0.69267714
00000000: 3fd7 84be b5fe 1b3f 8a9c 3cbe e8fb 403f
00000010: 84ca d1be 9acf 3a3f 963a dabe e123 903e
00000020: d7eb 86be cf3c c0bc 05c1 5e3f ba84 f6bd
00000030: c52d 89bd 265f 8ebe 3d03 6dbe 0fb7 24bf
00000040: 4a53 31bf

encoder.initial_transform.blocks.1.bn.running_mean f4 [17]
-6.7277803 -3.2476604 -10.415237 -8.925976 4.9208856 10.215149 -2.2735267 -7.5822067
-1.3747834 -11.744749 0.60927457 3.8184524 1.1882908 -1.0482423 5.659894 1.3781822
-2.0126255
00000000: fa49 d7c0 abd9 4fc0 d0a4 26c1 ccd0 0ec1
00000010: e577 9d40 4071 2341 7681 11c0 70a1 f2c0
00000020: e7f8 afbf 7eea 3bc1 6bf9 1b3f 8661 7440
00000030: ea19 983f ce2c 86bf da1d b540 4668 b03f
00000040: dbce 00c0

encoder.initial_transform.blocks.1.bn.running_var f4 [17]
799.9708 276.82822 698.7783 772.8257 70.54913 217.10503 47.439816 530.895
127.461555 538.33234 140.7473 519.94934 63.731724 87.73911 95.54041 66.10759
160.66267
00000000: 22fe 4744 036a 8a43 d0b1 2e44 d834 4144
00000010: 2819 8d42 e31a 5943 5fc2 3d42 48b9 0444
00000020: 51ec fe42 4595 0644 4fbf 0c43 c2fc 0144
00000030: 49ed 7e42 6d7a af42 b114 bf42 1637 8442
00000040: a5a9 2043

encoder.initial_transform.blocks.2.fc.weight f4 [34, 17]
2.3728359 2.5635066 1.0301723 2.03674 0.26832482 3.4316773 -2.1767273 2.4577801
-3.9055753 -2.6570697 -0.2659338 -2.3510492 -1.1629722 -0.00019829517 1.8892785 -1.4393854
-0.15715462 1.2624347 2.2587576 0.1992255 -0.031482223 1.8723533 1.7620845 -0.4867971
1.3420029 -2.1190317 2.5202377 2.884278 1.0349634 1.4745512 -1.1701219 2.4943597
-2.9057868 -3.2146952 4.094017 2.2599607 3.6834257 3.2610862 1.4446052 3.6020815
1.6027356 0.1037761 -3.1010046 2.3779044 3.599569 -2.4338717 -3.4835548 3.16467
0.33227062 0.5107155 2.8110387 0.9700305 -0.56787014 0.51984507 1.0200281 -1.4091929
-2.3949878 1.7053173 -0.997495 2.3067203 2.5906053 -2.2651637 2.1557345 -0.571291
1.544834 -3.7874124 1.0098618 -0.52804065 -3.009956 0.730851 -0.60117847 -0.88204104
-0.028398404 -0.4004208 1.8195676 -0.9869101 -1.651551 -2.3995075 1.6578867 -0.25250405
1.7781783 -1.6634326 0.8429704 -1.5632219 -0.51626843 3.1241853 -0.62143695 4.193015
3.0570445 0.11667815 -1.5511417 2.6798432 2.9375792 -2.532097 -1.6523032 1.4099375
-1.1541227 1.4225864 3.2361104 3.2448695 0.34529647 -1.2580962 2.776704 0.69339603
4.35162 3.8499005 -1.5003896 -1.0658641 3.0184085 -2.3467362 -1.4386739 -1.0974295
-1.911319 -1.0540732 2.2145042 4.2745614 0.79601645 0.40584973 2.6752014 -3.8790298
-1.7073437 -2.4118862 1.4111845 2.6818547 0.48110738 -1.7033584 -0.5921723 -3.1431808
-2.1345327 -4.4769917 3.2824068 -3.5603416 2.9862502 -2.4909773 1.9013541 2.0685565
-3.695354 2.2873864 -2.4647503 2.2576592 -3.155025 -0.38151708 -2.565526 -2.904729
3.807868 -3.5738645 3.9397962 -2.658591 3.2998042 -3.3804815 0.21232463 -0.9046234
1.9740713 2.004638 -2.6915753 3.5570323 0.55170184 -0.9590209 -2.4906476 2.9115121
-1.9780138 -3.5176592 -0.4076726 0.3953283 -1.0654106 0.36847037 4.028779 1.9015725
1.9533365 0.895052 1.1975836 -0.96502745 -0.62080765 -0.76792985 -0.19225237 -1.3907405
-2.1917477 1.8654553 2.0619829 4.4699965 -2.5422275 1.0581474 -0.91781205 0.6173966
-0.42339164 0.8545539 -2.7244906 -0.21202004 -2.6682875 -2.3981123 0.1140165 -0.8068373
0.1893544 2.5432656 -1.2179698 0.19717775 -0.95081806 -0.50462663 2.3206053 0.8644647
-1.8978591 -0.057705447 2.5732687 -2.1884263 2.901874 -1.8841132 4.6341343 3.2790427
-1.3585254 2.072205 3.5815754 -0.6685477 0.19321293 -0.29077125 1.761607 -1.2151538
2.6542454 1.9246141 0.19575123 0.1747241 1.435421 1.0994246 -1.6741732 -1.9828873
-2.5175185 1.6631125 -1.1143533 0.94759583 1.2001755 -3.7217114 -0.9502023 -2.9177427
2.2924547 -2.8036735 3.098887 -3.589014 2.4946003 0.98963577 2.2192302 -2.8012905
1.9210894 -1.251181 1.6727262 2.4122646 0.56881356 -0.8205565 -2.153392 -1.1581819
0.87191325 0.50683296 1.9073658 -1.6982924 -2.9425564 3.5419147 1.0051904 -1.4579166
00000000: 8bdc 1740 7e10 2440 b0dc 833f f359 0240
00000010: df61 893e 9aa0 5b40 804f 0bc0 454c 1d40
00000020: f2f4 79c0 6e0d 2ac0 7a28 88be 9777 16c0
00000030: 46dc 94bf 74ed 4fb9 e1d3 f13f c83d b8bf
00000040: 24ed 20be 7697 a13f 7c8f 1040 c501 4c3e
00000050: 81f3 00bd 46a9 ef3f fc8b e13f 783d f9be
00000060: c0c6 ab3f 379e 07c0 934b 2140 0398 3840
00000070: ae79 843f 18be bc3f 8ec6 95bf 97a3 1f40
00000080: 69f8 39c0 91bd 4dc0 3002 8340 32a3 1040
00000090: 3fbd 6b40 a3b5 5040 d3e8 b83f 8188 6640
000000a0: 7126 cd3f 9088 d43d dc76 46c0 962f 1840
000000b0: 575f 6640 8ec4 1bc0 90f2 5ec0 f489 4a40
000000c0: 601f aa3e 40be 023f 0fe8 3340 eb53 783f
000000d0: f05f 11bf 9114 053f 4890 823f 6f60 b4bf
000000e0: 7b47 19c0 d647 da3f d55b 7fbf 4ea1 1340
000000f0: 7acc 2540 71f8 10c0 8ef7 0940 2140 12bf
00000100: 1fbd c53f f764 72c0 2743 813f ac2d 07bf
00000110: 1ea3 40c0 0d19 3b3f d5e6 19bf 71cd 61bf
00000120: c5a3 e8bc f503 cdbe 97e7 e83f 24a6 7cbf
00000130: 0666 d3bf 8891 19c0 a235 d43f 3648 81be
00000140: 599b e33f 5ceb d4bf e8cc 573f a817 c8bf
00000150: 2b2a 04bf a7f2 4740 7e16 1fbf 2e2d 8640
00000160: 9ea6 4340 f4f4 ee3d d08b c6bf 8d82 2b40
00000170: 4c01 3c40 e10d 22c0 ac7e d3bf d578 b43f
00000180: 4bba 93bf 5017 b63f 6f1c 4f40 f1ab 4f40
00000190: b3ca b03e 4c09 a1bf 85b5 3140 6782 313f
000001a0: 7940 8b40 c564 7640 c40c c0bf 3c6e 88bf
000001b0: 9b2d 4140 ed30 16c0 7726 b8bf 9278 8cbf
000001c0: 1aa6 f4bf dfeb 86bf 70ba 0d40 35c9 8840
000001d0: bcc7 4b3f 89cb cf3e 8036 2b40 0642 78c0
000001e0: 3d8a dabf 585c 1ac0 b2a1 b43f 82a3 2b40
000001f0: b553 f63e a607 dabf 9b98 17bf e029 49c0
00000200: 2f9c 08c0 8443 8fc0 f412 5240 a3dc 63c0
00000210: b91e 3f40 2c6c 1fc0 925f f33f 3b63 0440
00000220: ae80 6cc0 8a64 1240 78be 1dc0 7d7d 1040
00000230: eeeb 49c0 3556 c3be 9431 24c0 14e7 39c0
00000240: 1cb4 7340 32ba 64c0 9f25 7c40 5b26 2ac0
00000250: fe2f 5340 cf59 58c0 a16b 593e 6695 67bf
00000260: 5eae fc3f fd4b 0040 c542 2cc0 6ba6 6340
00000270: 553c 0d3f 6582 75bf c566 1fc0 3756 3a40
00000280: 8e2f fdbf 5421 61c0 77ba d0be 7968 ca3e
00000290: 605f 88bf 26a8 bc3e c2eb 8040 ba66 f33f
000002a0: ee06 fa3f 2122 653f 6b4a 993f 0a0c 77bf
000002b0: 40ed 1ebf 0d97 44bf cedd 44be c903 b2bf
000002c0: 9845 0cc0 3dc7 ee3f 87f7 0340 360a 8f40
000002d0: dbb3 22c0 6071 873f bbf5 6abf b40d 1e3f
000002e0: cac6 d8be 0bc4 5a3f 0e5e 2ec0 c81b 59be
000002f0: 39c5 2ac0 ac7a 19c0 7c81 e93d e48c 4ebf
00000300: 1fe6 413e ddc4 2240 6fe6 9bbf f7e8 493e
00000310: d068 73bf 362f 01bf cc84 1440 8f4d 5d3f
00000320: 0ced f2bf 8c5c 6cbd 6fb0 2440 2d0f 0cc0
00000330: 4eb8 3940 9f2a f1bf d44a 9440 d6db 5140
00000340: 29e4 adbf 029f 0440 8838 6540 f125 2bbf
00000350: 9cd9 453e f8df 94be 577c e13f 298a 9bbf
00000360: 28df 2940 c159 f63f 0373 483e e0ea 323e
00000370: e0bb b73f f2b9 8c3f 4f4b d6bf 40cf fdbf
00000380: 061f 21c0 dfe0 d43f 21a3 8ebf a495 723f
00000390: 5a9f 993f 8530 6ec0 7540 73bf 4cbc 3ac0
000003a0: 94b7 1240 636f 33c0 2a54 4640 68b2 65c0
000003b0: 88a7 1f40 c558 7d3f de07 0e40 5848 33c0
000003c0: 42e6 f53f b326 a0bf e41b d63f 8b62 1a40
000003d0: c49d 113f fe0f 52bf 2dd1 09c0 4e3f 94bf
000003e0: b535 5f3f cebf 013f 9024 f43f a561 d9bf
000003f0: d852 3cc0 bbae 6240 14aa 803f 039d babf

encoder.initial_transform.blocks.2.fc.bias f4 [34]
1.8092605 1.8449513 -1.1435792 -2.574278 0.8808196 -1.4126985 -0.683885 -2.2388902
2.103774 1.1488117 -0.64570713 -2.5220895 2.2831023 -1.182573 1.1676252 1.5109668
1.7671856 2.3489244 0.12726334 0.7852718 0.48322332 0.2356573 2.152632 -3.3241136
0.41337287 1.5027581 2.4731042 -1.5995617 2.4415002 -1.0721473 2.305785 2.4750085
0.58179474 0.31573892
00000000: d995 e73f 5d27 ec3f ce60 92bf f9c0 24c0
00000010: 657d 613f 4ed3 b4bf 1613 2fbf fa49 0fc0
00000020: 3ca4 0640 430c 933f 104d 25bf ea69 21c0
00000030: 591e 1240 8d5e 97bf be74 953f 5c67 c13f
00000040: 2333 e23f c754 1640 5251 023e 9307 493f
00000050: 0c69 f73e 2650 713e b9c4 0940 47be 54c0
00000060: 9ca5 d33e 615a c03f 5747 1e40 70be ccbf
00000070: 8a41 1c40 1f3c 89bf fb91 1340 8a66 1e40
00000080: 80f0 143f 88a8 a13e

encoder.initial_transform.blocks.2.bn.weight f4 [17]
0.6831085 1.8030226 0.7222226 1.9504036 2.1659622 1.7233912 1.2200786 1.2476805
1.6625862 1.2870876 1.509155 2.2787936 0.29960838 1.8318033 1.1798922 1.7182204
1.1751823
00000000: 33e0 2e3f 72c9 e63f 95e3 383f d3a6 f93f
00000010: 209f 0a40 1598 dc3f 892b 9c3f ffb3 9f3f
00000020: a0cf d43f 49bf a43f fe2b c13f c1d7 1140
00000030: 4566 993e 8878 ea3f b506 973f a5ee db3f
00000040: 606c 963f

encoder.initial_transform.blocks.2.bn.bias f4 [17]
-0.67230207 -0.46235943 -0.34417439 0.7248029 -1.0419971 -0.44391972 -0.28737426 0.4588574
0.22770837 -0.08550133 -0.3410929 0.5574914 0.09614872 0.065339506 -1.07118 -0.09705712
-0.41631496
00000000: fd1b 2cbf 60ba ecbe a037 b0be af8c 393f
00000010: 2960 85bf 7249 e3be b822 93be 5bef ea3e
00000020: 622c 693e 521b afbd bba3 aebe c2b7 0e3f
00000030: 9fe9 c43d b8d0 853d 6d1c 89bf e2c5 c6bd
00000040: 3c27 d5be

encoder.initial_transform.blocks.2.bn.running_mean f4 [17]
9.820615 6.130038 -3.100695 -10.06335 -2.8530445 -8.309125 -6.450995 -7.6404557
19.052448 -9.611374 -2.6804643 -6.6408567 -7.851535 -16.451597 8.59129 8.089395
3.1066828
00000000: 3d21 1d41 4529 c440 c971 46c0 7b03 21c1
00000010: 4898 36c0 2df2 04c1 8d6e cec0 9d7e f4c0
00000020: 6a6b 9841 30c8 19c1 ba8c 2bc0 e681 d4c0
00000030: c63f fbc0 df9c 83c1 ed75 0941 296e 0141
00000040: e4d3 4640

encoder.initial_transform.blocks.2.bn.running_var f4 [17]
431.07233 199.19092 1005.73645 135.04044 73.773315 922.5423 327.28287 243.7087
1244.5245 716.3032 53.51699 103.61822 418.76352 380.92053 288.11234 196.34651
111.332855
00000000: 4289 d743 e030 4743 226f 7b44 5a0a 0743
00000010: f08b 9342 b5a2 6644 35a4 a343 6db5 7343
00000020: c990 9b44 6813 3344 6611 5642 873c cf42
00000030: bb61 d143 d475 be43 610e 9043 b558 4443
00000040: 6caa de42

encoder.initial_transform.blocks.3.fc.weight f4 [34, 17]
-3.6078854 1.756712 -2.8053489 -2.7352178 3.1261518 -2.6374826 -1.3213607 -2.6917279
-2.4554737 -2.7363431 -1.264372 -0.21032292 -2.021273 2.0610285 1.6830852 2.556245
0.59009737 0.039140243 2.2131298 -3.6777775 -3.0548403 2.1711307 -0.5481327 -4.41335
-0.34330764 -0.9591654 -3.860112 2.5367181 -0.6553405 -1.9407599 -2.5112104 0.6346359
0.38260263 -2.8437338 3.017244 1.8058752 4.0958924 -0.7166476 2.7174084 -1.292671
2.98615 -1.6864033 -1.8162346 2.2538998 -0.39719293 -2.4053545 3.3809388 -3.3812635
3.1492083 -3.0459535 1.5604185 0.16948137 -2.6382768 4.1290402 2.1910233 -1.7476162
2.1481671 3.8631108 -0.14498731 0.96151274 2.354298 -3.205071 2.8605542 3.0266778
3.165777 -0.47807282 -0.75401586 -0.699216 -0.91805077 -3.4939327 0.20789987 1.8378297
-0.6501919 0.05157297 -0.23083222 2.5884292 -1.1387348 -2.1994627 -1.299989 1.9175333
-1.0817786 2.4859436 -1.7013075 0.43328834 1.1195589 1.9237015 -0.80345625 0.8505682
-1.983814 -0.6145263 1.2484909 -4.0825186 -2.2802172 -0.39042854 0.16185114 1.9247261
0.50743115 1.6205825 -0.5385505 -0.54425687 -0.35222456 0.4424541 0.49470854 2.4734533
2.8942244 -3.504977 -3.027627 3.8179343 3.6577072 -3.5559692 -3.6994214 -1.9826099
-2.8885179 3.4535217 3.8829708 3.2174373 -1.2965171 1.8401943 1.7827784 3.1790714
0.9587599 1.195418 -0.87178344 0.00037114433 2.9240203 1.1030208 1.4271693 -3.1648893
-3.126183 -2.9967804 -1.171949 -2.4987824 0.7389544 2.2260413 1.4481422 0.31332815
-3.2558432 -3.5870578 -3.6292882 -2.523729 -2.5734982 -3.7611349 0.8143475 -2.8986797
4.1754074 -3.6144092 -2.8907046 -2.170237 -2.994687 -3.629923 -0.8953929 -2.2523282
-0.8637665 2.5348458 1.0882872 2.7538903 1.1715449 2.4668498 -1.2066804 4.0475106
3.679309 -3.0496087 -0.7820253 -0.34026536 -1.1393931 -0.5107058 4.003296 2.2875857
0.21144183 0.25694042 1.2761433 2.7940223 1.7143993 1.6422286 -0.791965 2.835871
-1.59603 2.8738873 -4.5107327 2.62228 0.99630797 2.1995978 -0.54760677 4.1146417
0.140424 3.1008408 1.1827619 -1.2422699 -2.0726423 -1.9235067 -0.5577019 -0.58333975
-0.60893637 0.19974636 -0.42911908 -0.6365834 -1.6165241 0.0007332663 3.9860518 1.1971046
1.854416 -0.61821944 3.1069639 0.29879245 0.8992189 -3.0753245 3.1859453 0.82545537
-0.8935467 -1.3867737 1.458162 2.7239163 3.837333 -3.928122 -1.1122358 -3.7138813
3.8216174 -3.7749221 -2.2911882 -3.8404999 -0.14436507 1.3210436 -3.671035 0.013923117
4.0858397 -2.2493932 -1.6343431 2.1554327 3.4788425 -2.2485354 2.8548238 -0.66726923
0.53324234 -2.2162983 3.2386162 -0.44681454 3.266895 -0.68789345 1.1112454 -0.43796062
4.4588065 1.158868 0.814491 4.412901 3.4040885 -2.9335606 -3.287526 3.6677282
-3.1523383 1.186976 3.826042 2.3628962 -0.05830615 0.29608765 3.0437486 2.0815067
00000000: 98e7 66c0 f0db e03f d68a 33c0 cf0d 2fc0
00000010: df12 4840 84cc 28c0 5922 a9bf 4545 2cc0
00000020: 7b26 1dc0 3f20 2fc0 f1d6 a1bf e45e 57be
00000030: 895c 01c0 e4e7 0340 566f d73f 8599 2340
00000040: 9f10 173f 8551 203d eba3 0d40 b560 6bc0
00000050: 8182 43c0 cef3 0a40 6d52 0cbf 2a3a 8dc0
00000060: 05c6 afbe dd8b 75bf 130c 77c0 9759 2240
00000070: 65c4 27bf d26a f8bf acb7 20c0 8077 223f
00000080: 7ee4 c33e bcff 35c0 871a 4140 eb26 e73f
00000090: 8d11 8340 3876 37bf 05ea 2d40 3e76 a5bf
000000a0: 151d 3f40 10dc d7bf 607a e8bf e53f 1040
000000b0: df5c cbbe 54f1 19c0 4d61 5840 9f66 58c0
000000c0: a18c 4940 e7f0 42c0 cbbb c73f 868c 2d3e
000000d0: 87d9 28c0 1921 8440 ba39 0c40 e3b1 dfbf
000000e0: 927b 0940 353d 7740 8e77 14be b325 763f
000000f0: d2ac 1640 e21f 4dc0 5213 3740 17b5 4140
00000100: 179c 4a40 f6c5 f4be 2f07 41bf d2ff 32bf
00000110: 6005 6bbf 989c 5fc0 b4e3 543e 013e eb3f
00000120: fa72 26bf 2e3e 533d 485f 6cbe d3a8 2540
00000130: 10c2 91bf ffc3 0cc0 0a66 a6bf bb71 f53f
00000140: b977 8abf b319 1f40 72c4 d9bf f8d7 dd3e
00000150: b54d 8f3f da3b f63f 4faf 4dbf d6be 593f
00000160: 9eed fdbf 9851 1dbf 8dce 9f3f fea3 82c0
00000170: 14ef 11c0 40e6 c7be 4ebc 253e 6d5d f63f
00000180: 02e7 013f 3f6f cf3f 72de 09bf 6b54 0bbf
00000190: c756 b4be 5889 e23e 704a fd3e 0f4d 1e40
000001a0: f93a 3940 8b51 60c0 a4c4 41c0 0959 7440
000001b0: e017 6a40 0095 63c0 52c3 6cc0 29c6 fdbf
000001c0: 7add 38c0 8006 5d40 9882 7840 7eea 4d40
000001d0: 46f4 a5bf 7d8b eb3f 1532 e43f e875 4b40
000001e0: 4a71 753f 7503 993f 332d 5fbf 2696 c239
000001f0: 2623 3b40 c92f 8d3f 7cad b63f 8c8d 4ac0
00000200: 6213 48c0 40cb 3fc0 6d02 96bf 0dec 1fc0
00000210: 1e2c 3d3f 7677 0e40 b95c b93f 8c6c a03e
00000220: bc5f 50c0 5b92 65c0 4246 68c0 c784 21c0
00000230: 32b4 24c0 6fb6 70c0 1479 503f f883 39c0
00000240: f09c 8540 7b52 67c0 4e01 39c0 2ae5 0ac0
00000250: f4a8 3fc0 a950 68c0 7838 65bf 2526 10c0
00000260: cd1f 5dbf ea3a 2240 ff4c 8b3f bd3f 3040
00000270: 2ff5 953f dee0 1d40 8174 9abf 3585 8140
00000280: cc79 6b40 ca2c 43c0 cf32 48bf 4337 aebe
00000290: a2d7 91bf 9ebd 02bf 001b 8040 ce67 1240
000002a0: 3584 583e b28d 833e aa58 a33f 43d1 3240
000002b0: 7071 db3f 8c34 d23f 38be 4abf e97e 3540
000002c0: b64a ccbf c5ed 3740 ec57 90c0 6fd3 2740
000002d0: 0a0e 7f3f 36c6 0c40 f52f 0cbf 25ab 8340
000002e0: 4fcb 0f3e 2d74 4640 be64 973f b302 9fbf
000002f0: 2ca6 04c0 7835 f6bf 8dc5 0ebf c155 15bf
00000300: 41e3 1bbf 4f8a 4c3e 7fb5 dbbe 21f7 22bf
00000310: 43ea cebf ab38 403a 791b 7f40 b93a 993f
00000320: 815d ed3f a143 1ebf 7fd8 4640 53fb 983e
00000330: 3633 663f 1ed2 44c0 87e6 4b40 0b51 533f
00000340: 7abf 64bf cd81 b1bf 0da5 ba3f a554 2e40
00000350: dd96 7540 5a66 7bc0 be5d 8ebf 3bb0 6dc0
00000360: 6195 7440 5398 71c0 d4a2 12c0 c0ca 75c0
00000370: 70d4 13be f517 a93f 3df2 6ac0 c91d 643c
00000380: 33bf 8240 0ff6 0fc0 2832 d1bf 9cf2 0940
00000390: 5ba5 5e40 01e8 0fc0 6fb5 3640 28d2 2abf
000003a0: 9282 083f d5d7 0dc0 7d45 4f40 e0c4 e4be
000003b0: cf14 5140 c919 30bf 4a3d 8e3f 603c e0be
000003c0: 8bae 8e40 c955 943f 7b82 503f 7c36 8d40
000003d0: 96dc 5940 75bf 3bc0 d366 52c0 0fbc 6a40
000003e0: e9bf 49c0 d4ee 973f dfdd 7440 b139 1740
000003f0: 6ed2 6ebd cd98 973e c7cc 4240 6837 0540

encoder.initial_transform.blocks.3.fc.bias f4 [34]
-2.5068808 -0.620944 -0.013194736 -2.766407 1.9464803 -0.8118481 -2.1456227 0.4529205
0.99173415 0.85731083 1.0740024 1.1251795 -1.9203453 -0.58903587 2.4235618 -1.0429813
-0.045221064 -0.51510227 2.0870867 1.21633 -1.8567535 0.9338299 -1.1443235 -1.9104435
-0.93865305 -1.3721389 1.9502035 2.8866248 1.0496422 -0.6790211 0.43943354 -1.4884605
-0.17258802 1.4279623
00000000: bc70 20c0 30f6 1ebf bc2e 58bc d00c 31c0
00000010: 4426 f93f 47d5 4fbf e251 09c0 32e5 e73e
00000020: 4ae2 7d3f b978 5b3f e978 893f e205 903f
00000030: e0cd f5bf 0ecb 16bf a31b 1b40 6980 85bf
00000040: b939 39bd bedd 03bf d492 0540 b4b0 9b3f
00000050: 19aa edbf 7a0f 6f3f 3179 92bf 6a89 f4bf
00000060: 914b 70bf 3fa2 afbf 45a0 f93f 76be 3840
00000070: ad5a 863f 54d4 2dbf 6ffd e03e e085 bebf
00000080: eaba 30be 78c7 b63f

encoder.initial_transform.blocks.3.bn.weight f4 [17]
0.8234771 2.1423721 1.2079164 1.5390611 1.4773831 0.7254014 0.7380152 2.1069021
1.3197224 0.37409833 1.7705312 0.805765 -0.1630593 0.3973195 0.7111783 1.404751
1.7308711
00000000: 65cf 523f a01c 0940 019d 9a3f f4ff c43f
00000010: e41a bd3f e8b3 393f 90ee 3c3f 7cd7 0640
00000020: aaec a83f d189 bf3e c4a0 e23f 9d46 4e3f
00000030: 04f9 26be 766d cb3e c80f 363f e1ce b33f
00000040: 2f8d dd3f

encoder.initial_transform.blocks.3.bn.bias f4 [17]
-0.012168428 -0.27610812 -0.5392943 0.30209312 -0.33969244 -0.5629389 0.19505897 0.57449764
-0.16815968 -0.25589406 -0.5971191 0.21467395 -0.071478374 -0.044385023 -0.7512748 0.017100586
0.40261236
00000000: 165e 47bc 0b5e 8dbe 310f 0abf f3ab 9a3e
00000010: 2bec adbe c41c 10bf 8abd 473e 4712 133f
00000020: 0d32 2cbe 8c04 83be ccdc 18bf 7dd3 5b3e
00000030: 4163 92bd 12cd 35bd 8c53 40bf 8716 8c3c
00000040: 3523 ce3e

encoder.initial_transform.blocks.3.bn.running_mean f4 [17]
-2.8447223 11.937638 -6.5150037 -12.037403 -6.0439954 1.9768347 -12.179006 4.7832646
17.273853 6.4928656 -4.3369355 -3.8942502 -4.5841722 3.8290377 -9.941097 -9.321833
-6.9792933
00000000: ee0f 36c0 9100 3f41 e97a d0c0 3499 40c1
00000010: 6968 c1c0 eb08 fd3f 35dd 42c1 8110 9940
00000020: da30 8a41 8ec5 cf40 2dc8 8ac0 653b 79c0
00000030: 8ab1 92c0 f40e 7540 bc0e 1fc1 3a26 15c1
00000040: 5f56 dfc0

encoder.initial_transform.blocks.3.bn.running_var f4 [17]
351.7737 655.06476 594.6461 630.39417 150.44614 84.359604 672.17426 108.95405
1546.1636 164.78374 1311.1041 231.2022 354.71448 368.49612 1741.9359 306.3276
283.00143
00000000: 09e3 af43 25c4 2344 5aa9 1444 3a99 1d44
00000010: 3672 1643 1eb8 a842 270b 2844 79e8 d942
00000020: 3c45 c144 a3c8 2443 55e3 a344 c333 6743
00000030: 745b b143 813f b843 f3bd d944 ef29 9943
00000040: 2f80 8d43
